Code_Webots/results/best_weights.pt (torch, 8323 bytes, 10 tensors)

conv1.weight f4 [8, 3, 2, 2]
000000 33 2a 4a 3e f5 74 5d 3e d6 64 b9 bd b5 a7 77 3e
       0.1974266 0.21626647 -0.09052436 0.24185069
000010 cc 6c b0 bd 46 14 10 3d 58 3d 27 be b3 dd 15 3e
       -0.08614501 0.035175584 -0.16331995 0.14635353
000020 f2 ce 6c 3e 47 15 70 be e4 2b 69 3e 0f 4a fe 3c
       0.23125818 -0.23445617 0.22770649 0.031041173
000030 94 51 43 3e 91 89 89 3c cf fa ee 3d 2b 28 81 bd
       0.19074088 0.01678923 0.11668932 -0.063064896
000040 ab 84 4c 3e ec 98 a4 3c 13 f4 20 be 35 75 50 3d
       0.19972484 0.02009245 -0.15718107 0.050893027
000050 d0 7e 1f be 52 51 68 bd b3 64 0f be e9 5b 2c 3e
       -0.15575719 -0.056718178 -0.14003257 0.16831936
000060 92 95 7b be c3 71 17 be 37 bb cc bd 3a b2 3e be
       -0.24568775 -0.1478949 -0.09996646 -0.18622676
000070 0e ac 15 3c 9f a3 99 be 44 ab 77 3e c6 13 84 be
       0.009135259 -0.30007645 0.24186426 -0.25796336
000080 29 7b 51 3e 51 14 04 3d 28 83 e5 bd 96 16 28 3e
       0.20457138 0.032245938 -0.11206657 0.16414866
000090 38 3b f0 3c e1 80 5e 3e d6 97 82 3c 93 46 da bd
       0.029325113 0.21728851 0.015941542 -0.10657992
0000a0 6d 5a 7c 3d 8e b3 c0 bd 3d 1d d8 3d df 55 77 3e
       0.061609674 -0.09409247 0.10552452 0.24153851
0000b0 bb fa 19 3e 8c cb 11 be 76 c9 19 3e f8 87 10 3d
       0.15037052 -0.14237803 0.15018257 0.03528592
0000c0 2c 01 26 3e c5 c7 23 be 31 1d 8a be 1e 27 c4 bd
       0.16211385 -0.15994175 -0.26975396 -0.095777735
0000d0 d7 27 52 be ed 50 81 3e de 7f ca 3d 67 73 0a 3e
       -0.2052301 0.25257054 0.0988767 0.13520585
0000e0 60 2c dc 3d 7a cb 39 3c 18 a0 77 3e a7 44 41 be
       0.10750651 0.0113400165 0.24182165 -0.18873845
0000f0 00 f6 fb 3c 55 88 3c be 63 89 cf 3d af ba b1 bd
       0.03075695 -0.18411382 0.10133626 -0.08678185
000100 32 61 cf 3d 7e e1 40 bd bd ec 80 3e a6 f0 21 be
       0.101259604 -0.047090046 0.25180617 -0.15814456
000110 72 25 22 be fe 1a 22 be ed 86 8b 3e be e4 df 3d
       -0.15834597 -0.15830609 0.27251378 0.10932301
000120 4e 0c 8e 3e f5 a7 73 be e7 6b 92 be 97 fc 66 be
       0.27743763 -0.2379454 -0.28597948 -0.22557293
000130 2c 9b 46 be 60 2b ef 3d 2a 70 d3 3d ce 52 75 3e
       -0.19395131 0.11678195 0.10324128 0.23957369
000140 5b 78 18 be 0a 45 49 be 16 a6 1c 3e 11 ad ee bd
       -0.14889662 -0.19655243 0.15297732 -0.116541035
000150 04 91 1c 3e dc d0 b6 bd cb 92 0d 3e 3b 20 80 be
       0.15289694 -0.089265555 0.13825528 -0.2502459
000160 3b fe 2c be 12 1e 86 3d 5e a3 0d 3d a7 c6 cb bd
       -0.16893856 0.06548704 0.034579627 -0.09949999
000170 b8 13 16 3e 33 7d 2f 3e 12 b5 70 be f4 08 38 be
       0.1465596 0.17137603 -0.23506573 -0.17972165

conv1.bias f4 [8]
000000 a3 e5 76 3e 0f 74 f5 bd 60 f8 d5 bd 2a b7 97 be
       0.24111037 -0.11985027 -0.104477644 -0.2963193
000010 b9 3d 17 be 1e 46 b1 3d 39 e1 1b bd ab 78 72 be
       -0.14769639 0.08655952 -0.038056586 -0.23678844

conv2.weight f4 [16, 8, 2, 2]
000000 a2 b5 87 3b db ff f6 bd 77 63 19 be 0f 1e c7 bd
       0.0041415254 -0.12060519 -0.14979349 -0.0972253
000010 95 3c 1e be ef 3d e6 bd 2b ba 34 3e b4 97 08 3d
       -0.15452798 -0.11242282 0.17649142 0.0333478
000020 cb db 5e 3d a6 a0 28 be 96 7c ed bd 02 b8 70 bd
       0.05440883 -0.16467533 -0.115960285 -0.058769234
000030 37 2c e2 3c 81 16 1f be 53 cd 9b bd df 79 d8 bd
       0.027608974 -0.15535928 -0.07607522 -0.1057012
000040 ce 43 00 3a 1f 8d 86 bd e8 74 48 bc 3d 07 f5 bd
       0.0004892916 -0.065698855 -0.012234904 -0.11964271
000050 9b 32 f8 bd a9 f4 d2 bd f9 8b 77 bd 3c b3 0e be
       -0.12119027 -0.103005715 -0.060436223 -0.1393556
000060 05 98 17 3e 11 87 0f bd cc 8e 1b 3e 67 55 61 3d
       0.14804085 -0.03504092 0.15191191 0.055013087
000070 55 19 19 be a8 3c fa 3d 7e fb 46 bd f0 9b 8a bd
       -0.1495107 0.122186005 -0.048579685 -0.06768024
000080 89 e7 31 be 6e c1 53 be 07 90 94 3c fa 83 90 bd
       -0.1737348 -0.20679256 0.018135084 -0.070564225
000090 97 a5 35 3d c9 2a 35 be 02 24 cb 3d bf ce 24 be
       0.044347372 -0.17692102 0.09918977 -0.16094492
0000a0 68 21 31 bd 93 0d 17 3d 90 aa 9e 3d c8 f5 11 3e
       -0.04324475 0.03687818 0.07747376 0.14253914
0000b0 76 96 07 3e 96 ff 2d be 56 1f 49 3c a5 45 db bd
       0.1324099 -0.1699203 0.0122755375 -0.10706643
0000c0 aa da 6a bd ad 8c 20 be 43 c2 01 3e eb 31 23 be
       -0.05733744 -0.15678664 0.12671761 -0.15937011
0000d0 e9 67 7e 3d 7e 6d 25 3d 79 5c be 3c d5 c5 05 be
       0.062110815 0.040387623 0.023237454 -0.13063748
0000e0 30 56 24 3e 00 ec 1e 3d 07 10 ba 3c 3a 54 1f be
       0.16048503 0.038799286 0.02271272 -0.15559474
0000f0 a0 45 4f 3d e3 52 3a bd 63 73 d6 bd 66 d7 12 3e
       0.05060351 -0.045489203 -0.10471227 0.1433998
000100 31 e6 c7 3c 4c 3d e7 bd 45 cf d6 bd 1d 21 c4 bc
       0.024401756 -0.11290988 -0.10488752 -0.02394157
000110 51 31 ac 3d 9f e5 75 bd e7 6a ee bd 45 67 9c bd
       0.08407844 -0.060033437 -0.11641484 -0.076368846
000120 db 11 07 be a4 bb 90 3d ee f1 0b 3e d6 35 2a be
       -0.13190405 0.070670396 0.13666508 -0.166221
000130 74 f2 d2 3c 0b 29 9b 3d 4c 8c 86 3c 60 77 a0 bd
       0.025750376 0.07576188 0.01642432 -0.07835269
000140 3f e9 a7 3d ac cb a2 3d 6b 51 52 3d 39 79 35 bd
       0.08198785 0.079490036 0.051347177 -0.04430506
000150 3b 34 fa bc 43 c5 b3 3c 15 e3 b9 bc 04 b5 4e bd
       -0.030542484 0.021944648 -0.022691289 -0.0504656
000160 73 22 e7 3d b4 60 1b 3e 2d 30 8f bc a7 eb 21 bd
       0.112858675 0.15173608 -0.017479027 -0.039531376
000170 c4 4d 38 bc 8c 19 d7 bc cc c0 d4 3c 82 fb 06 3d
       -0.0112490095 -0.026257299 0.025970839 0.0329547
000180 0e e4 32 be fb c0 a2 bd 83 91 09 3e 4a e3 5e 3d
       -0.17469808 -0.07946964 0.13434415 0.05441598
000190 b1 d8 bd bc 42 89 f7 bd 02 a0 fa bd 10 c2 30 be
       -0.023174616 -0.12086727 -0.1223755 -0.17261529
0001a0 c0 bb 6b bd 90 39 74 3d ae 8f e6 3d b1 f2 a6 3d
       -0.0575521 0.05962521 0.112578735 0.081517585
0001b0 21 5f 2e be 51 87 f6 bd 3e 8c 2c bd 2d 4e 20 3e
       -0.17028476 -0.12037528 -0.042125933 0.15654822
0001c0 09 fc 0a 3c ae ae 5b bd 97 d6 9d 3d a2 07 86 bd
       0.008482941 -0.053633384 0.077069454 -0.065444246
0001d0 51 da 09 be 63 39 fe 3d c2 70 c2 bd 42 53 4c bd
       -0.13462187 0.124132894 -0.09494163 -0.04988409
0001e0 c6 db 33 be 71 01 f2 3d a3 fa 08 3e 68 c8 83 3d
       -0.17564306 0.11816681 0.1337686 0.06434709
0001f0 0a 15 05 be 98 11 2c be 1f d7 12 be 28 d2 06 3e
       -0.12996307 -0.16803586 -0.14339875 0.13166106
000200 3b 8d 9b 3d 09 17 0f 3e ed 6a ab 3d ab ab 13 3d
       0.07595297 0.13973631 0.08370004 0.036052387
000210 32 a4 3b bc 70 96 13 be 30 c8 24 be da dd 32 be
       -0.011452721 -0.14412856 -0.1609199 -0.17467442
000220 b2 22 af 3d 25 88 b1 bd 31 ad f8 bc a6 19 d0 bd
       0.085515395 -0.08668546 -0.030356022 -0.10161142
000230 23 06 28 bd 57 4c 08 be 74 79 fe bd 6a 20 4c 3d
       -0.041021477 -0.13310371 -0.12425509 0.0498356
000240 9e a8 67 bd 87 f3 d4 3d a6 2e 72 bd df bc 08 be
       -0.05655729 0.10398012 -0.05912652 -0.13353299
000250 cf 2a ba bc ad 4e 9e bd 64 89 4c bd bd 63 22 be
       -0.02272549 -0.0772985 -0.049935713 -0.1585836
000260 4f 4f ca 3d af be fb bd 8c be b5 3d 19 16 a4 3d
       0.09878408 -0.122922294 0.088742346 0.08012027
000270 59 12 05 3e b6 93 07 be 01 06 07 3e 8f a0 a2 bd
       0.1299528 -0.13239941 0.13185884 -0.0794078
000280 88 de 55 3d fc bb 1b 3e bf 12 22 bd e8 5e 5d bc
       0.052214175 0.15208429 -0.03956866 -0.013511397
000290 e5 ff 5d bd 8a 69 25 be b4 7b 8e 3d b4 2b 40 be
       -0.05419912 -0.16153541 0.06957188 -0.18766671
0002a0 84 7a e0 3d 09 47 07 3e 57 fb 2a 3e 1a 96 2a bd
       0.10960868 0.13210692 0.16697441 -0.041647054
0002b0 10 0a 22 be b4 aa d8 3c 28 53 aa 3d 02 f5 40 be
       -0.15824151 0.026448585 0.08316642 -0.18843463
0002c0 58 55 41 bd f8 4c dc bd 2d fd 02 bd 7c 31 d2 bd
       -0.04720053 -0.10756868 -0.03197973 -0.10263345
0002d0 76 e0 9c bd 3c d6 6f bd 3e 89 40 be 92 f1 f6 3d
       -0.0766 -0.05855392 -0.18802354 0.12057795
0002e0 99 91 17 3e 8b e4 e2 bc 8a b7 a4 bc 02 93 93 bd
       0.14801635 -0.027696868 -0.02010705 -0.07205774
0002f0 5f dc 30 be 83 3f 41 be 9f 18 52 3d 93 f2 dc bd
       -0.17271565 -0.18871884 0.05129301 -0.10788455
000300 ad 8d 0f be 2e ce 2b bd 74 c0 af bd 63 bd af bd
       -0.14018889 -0.041944675 -0.085816294 -0.085810445
000310 f1 53 7a bc cd 25 7d bd bb 28 b3 bd 21 79 e6 bd
       -0.015278802 -0.061803628 -0.08748003 -0.11253572
000320 68 23 13 be bf 99 17 3e bd b4 90 bd 82 a1 3f 3d
       -0.14368975 0.14804743 -0.07065723 0.046784885
000330 5c 9a b5 bd 62 c0 5d bc 67 bf 0c 3e 26 8a 5a 3d
       -0.08867332 -0.013534637 0.13744889 0.053354405
000340 78 40 2a be 24 b6 88 3d d3 3f 26 3e f4 bb 17 3d
       -0.16626155 0.066753656 0.16235285 0.03704448
000350 ef 2c c2 3d 6c 06 1b 3e 68 fd 45 bd 37 32 8a 3c
       0.09481227 0.15139169 -0.04833737 0.016869647
000360 5f 52 fb bd 88 08 15 bd 70 e5 05 3e db 5e b9 3d
       -0.122715704 -0.03638509 0.13075805 0.09051295
000370 78 34 01 be 28 d0 26 be c4 36 d1 bd 30 7c 3a be
       -0.12617671 -0.16290343 -0.10215524 -0.18211436
000380 e5 4a 12 be 6a 27 4f bd 79 dd e8 3d c9 0b d0 3c
       -0.14286382 -0.050574698 0.113703676 0.025396245
000390 a6 56 13 be 0e fe 18 be 9f 04 a9 3d 85 c7 0c be
       -0.14388523 -0.14940664 0.082528345 -0.13747986
0003a0 de 16 b2 bc b6 75 ad 3d db 59 a7 bd b6 b6 9d bc
       -0.02173942 0.08469717 -0.081714354 -0.019252162
0003b0 01 31 9e bc b8 1b 46 bd 3d b0 bd bd 17 4e 27 be
       -0.019310476 -0.04836628 -0.092621304 -0.16338383
0003c0 88 f7 18 be 52 0e d0 bd 23 66 37 3e fc 3d 9b bd
       -0.14938176 -0.101589814 0.17910056 -0.07580182
0003d0 74 ff f1 bd 07 e3 1e 3d 33 8f 3a 3d 15 d5 b9 3d
       -0.11816302 0.03879073 0.04554672 0.09073845
0003e0 a2 6d 09 3e fc 5c c9 3d e0 42 33 be 1e 47 80 3c
       0.13420728 0.098321885 -0.1750598 0.015658911
0003f0 29 93 c2 3d 0e 1d e8 bc b6 14 d5 bd f7 94 36 3e
       0.09500725 -0.028334167 -0.10404341 0.17830263

conv2.bias f4 [16]
000000 f6 bd c3 3c 22 cf 2d be 59 48 96 bd 15 69 1f 3e
       0.023894291 -0.16973546 -0.07338018 0.1556743
000010 f2 a4 47 bd 93 eb 55 bc 4b 9f 2f be 46 04 da bd
       -0.04874129 -0.013056654 -0.17150609 -0.10645346
000020 ad 46 6c bb 44 17 f3 bd 3b 7f 28 bd 54 d7 9f 3d
       -0.0036052868 -0.11869672 -0.04113696 0.078047425
000030 cd 91 3d be 3e 1c 08 3d 4e 7f e2 bd 32 84 d4 bd
       -0.1851265 0.03323006 -0.11059438 -0.10376777

fc1.weight f4 [16, 16]
000000 44 52 c4 3d 43 4d 4b 3e 47 c3 8b bd 44 f4 d1 bd
       0.095860034 0.19853692 -0.068243556 -0.10251668
000010 7e 33 67 be cc d8 03 be 85 e3 5f be af 13 6a bd
       -0.22578236 -0.1287567 -0.21864136 -0.057147678
000020 72 b2 50 3d 08 8c 6f be 5c 3e 5f 3e 59 6a 20 3e
       0.05095143 -0.23393261 0.21801132 0.15665568
000030 b8 4d 7a be c0 3f f4 bd 8f c9 a6 3d 28 22 52 bd
       -0.2444371 -0.11926222 0.08143913 -0.051302105
000040 33 e9 de bc c7 c3 bb bd bb b7 3c 3e 08 98 1d be
       -0.027210807 -0.09168201 0.18429463 -0.15390027
000050 e2 e5 49 3e 55 e3 f5 3c ad 2f 76 3d 64 ab 53 3e
       0.197166 0.030015627 0.06010406 0.20670849
000060 7c 83 28 bd 70 a4 e4 bd 92 6c 99 bc 1d 8f 69 3e
       -0.04114102 -0.111641765 -0.018728528 0.228085
000070 76 b5 1e be a2 d2 a2 3d 70 49 7b be 07 0a 0b 3e
       -0.1549891 0.07950331 -0.24539733 0.13578044
000080 ac ef bc 3d b2 16 8a bc 72 5e ba 3d 20 55 6b bc
       0.09225401 -0.016856525 0.09100045 -0.014363557
000090 36 92 01 3e 19 18 40 be 39 ce 89 bc bc 1b d6 3d
       0.12653431 -0.18759193 -0.016821967 0.10454509
0000a0 09 9e 7e 3e 56 7d ee 3d a4 b8 3e be f9 26 35 3e
       0.24864973 0.11645 -0.18625122 0.17690648
0000b0 f0 a0 90 bd c1 94 8e bd 9f ab 75 be 45 ff 06 bd
       -0.070619464 -0.06961966 -0.2399125 -0.032958288
0000c0 b6 da 34 3e 35 51 37 3c a6 22 29 be be 23 51 3d
       0.17661557 0.011188795 -0.16517124 0.051059477
0000d0 03 61 ed bd af dc 5a 3e e3 f2 70 be df 8a 8e bd
       -0.11590769 0.21373247 -0.23530154 -0.06960081
0000e0 78 e2 76 be f5 63 ca bd ce f2 9e 3d 66 b9 4d 3e
       -0.24109828 -0.098823465 0.07761155 0.20090255
0000f0 84 7c b3 3b 0e 50 4c 3e b5 6d 7d 3d 8c e0 e6 3d
       0.00547749 0.19952413 0.061872203 0.11273298
000100 6d f9 4c 3e 14 bc 55 3e 3f 1d 0f be 73 13 6b 3e
       0.20017023 0.20872527 -0.13976 0.22956638
000110 d4 e2 1a 3e 8b 1b ef bd 79 07 f4 bd e3 74 56 be
       0.1512559 -0.11675175 -0.11915488 -0.20943026
000120 de 6c 80 3d 36 3f 4f be 4a 04 d8 3d 9f 7d a1 3d
       0.06270765 -0.20238957 0.10547693 0.078852884
000130 26 24 5e be 98 59 8b 3d 7e 5c a6 bc c5 9a e9 3d
       -0.21693477 0.06804198 -0.020307776 0.11406473
000140 f0 b5 12 3e 38 4e 66 be 29 de 59 3e d1 c6 47 3e
       0.14327216 -0.22490776 0.21276154 0.19509436
000150 69 f7 b8 3d 6a 18 5b be 12 05 a1 bd ac ea 91 bd
       0.09031565 -0.21396032 -0.07862295 -0.07124838
000160 15 6c 83 bd dc ab 29 3e fd ff ba 3d c0 e8 6c 3e
       -0.064170994 0.16569465 0.09130857 0.23135662
000170 23 93 6a bd 25 f3 ec 3d 2c 19 ce 3d 16 e3 4d be
       -0.057269227 0.11569814 0.10063395 -0.20106158
000180 82 05 78 be 79 c6 d4 bd e5 2a 3a 3e e5 d5 64 be
       -0.24220851 -0.10389418 0.18180425 -0.2234722
000190 44 8a 4e be dd a1 1f 3e 87 e1 fe 3d 9b 44 4d 3e
       -0.20169932 0.1558909 0.1244536 0.20045702
0001a0 2e 07 41 be db 28 33 be 86 c2 06 3e af f6 6c 3e
       -0.18850395 -0.17496054 0.13160142 0.23140977
0001b0 b3 e1 24 3e e9 5f 4d 3d 1a c9 8d 3d eb 11 6c 3e
       0.16101722 0.050140295 0.06923123 0.2305371
0001c0 6e f8 24 be 80 2b e8 bd 2f d8 32 3e 7a f3 2e be
       -0.16110393 -0.11336422 0.1746528 -0.17085066
0001d0 29 fd 0c be 21 a6 3a 3e 94 59 a1 3d 9f 35 a5 3d
       -0.13768448 0.18227436 0.07878414 0.08066868
0001e0 a9 bd d8 bd ae d4 61 bb 63 03 6a 3e fb 77 19 be
       -0.1058305 -0.0034459042 0.22852854 -0.14987175
0001f0 1d a8 00 3b 94 35 f3 3d df 83 30 be 2c 51 78 3e
       0.0019631453 0.118754536 -0.17237805 0.24249715
000200 e1 7c ff bd 46 99 75 bd c4 5c 8a bd dd 9e 26 be
       -0.12474991 -0.059960626 -0.06755975 -0.16271539
000210 7d e5 7a be 68 2b 10 3e d9 db 87 3d 0a 7a 6f be
       -0.24501605 0.14079058 0.066337295 -0.23386398
000220 22 91 24 be 72 b6 7c 3e 10 77 c3 3d a0 2f cd 3d
       -0.16070989 0.24678972 0.09544194 0.100188494
000230 18 fa 18 be 35 2f e0 bd 4b 63 1a bd 4d 0a 3b bd
       -0.14939153 -0.10946504 -0.03769235 -0.04566412
000240 81 35 2f be cd bb 7a bb ed 98 0d 3d 6e 66 be bc
       -0.17110254 -0.003825891 0.03456967 -0.023242202
000250 cc 83 ab 3c 81 7e e8 bd 1f 63 47 3d 10 dc c0 3d
       0.02093687 -0.11352254 0.048678514 0.094169736
000260 1d ae 06 be 82 ac 89 be 24 a4 d8 3d 46 ec aa 3c
       -0.13152356 -0.26889426 0.10578182 0.020864617
000270 22 7c 28 be e0 9b 4f 3e 81 44 e7 bd 91 4f 18 3e
       -0.16453603 0.20274305 -0.11292363 0.14874102
000280 a6 b7 01 3e bb 5e 56 be 73 eb 31 3e a9 b4 60 be
       0.12667713 -0.20934574 0.17374973 -0.21943916
000290 96 f3 01 be 5c b6 0d bd bf 5a 32 be 5e 5a 76 3e
       -0.12690577 -0.03459774 -0.1741743 0.2405791
0002a0 70 24 4d bd 6d f7 e7 3d 5c f0 50 be 88 e1 15 3e
       -0.050083578 0.113264896 -0.2040419 0.14636815
0002b0 3d 5a 97 bd 39 4d 3f be 93 8c 15 3d ab bd f7 3d
       -0.073902585 -0.18681802 0.036511015 0.12096723
0002c0 54 45 5d 3e 75 cf 33 be e8 80 db bd a3 9c 7e 3d
       0.21608478 -0.17559607 -0.10717946 0.0621611
0002d0 40 42 8f 3d 6e 6e a7 3d f9 1e 03 3e cf c0 37 bd
       0.06995058 0.0817536 0.12804784 -0.04486161
0002e0 37 0d 0e 3e 83 5f 27 3e 8a ed 94 bd 20 6d 0a 3e
       0.13872229 0.16345029 -0.072718695 0.1351819
0002f0 bf bd 9e 3d c4 25 3b 3e de 19 04 be fd 0c 08 be
       0.07751035 0.18276125 -0.12900493 -0.13286205
000300 b2 db 93 bd 4c 85 4f 3c 60 37 2c 3e e2 a0 07 be
       -0.07219638 0.012666058 0.16817999 -0.13244966
000310 0a 51 06 3e d6 d2 a4 bd a5 02 15 3e a2 3a 42 bc
       0.13116851 -0.08048026 0.1455179 -0.011854799
000320 fd 00 60 be cc 06 0c be f2 ac 26 be f2 2c 01 3e
       -0.21875377 -0.13674468 -0.16276911 0.12614802
000330 bd 66 28 be 0c c8 91 bc f3 a9 5c 3d 92 37 0c be
       -0.16445442 -0.017795585 0.053873014 -0.13693073
000340 0f 84 93 3d 99 a8 79 be 2d f2 36 be 17 af 67 be
       0.072029226 -0.24380721 -0.1786582 -0.22625385
000350 e3 ad 9a bd cf 4a ba bd 58 73 12 3d e2 1e 3d bd
       -0.075526975 -0.090963 0.03575453 -0.04617203
000360 33 63 f0 3d 9a 69 6a 3e f5 79 b7 3d f2 76 c9 bd
       0.11737671 0.22891846 0.08958808 -0.0983714
000370 f0 6b 6f be 85 38 b9 3d 39 5d fd bd f3 1c 02 3e
       -0.23381019 0.09043983 -0.123712964 0.12706356
000380 3c ec 2a 3e 82 3d b2 3d dc 8c 7f 3e 39 45 7b 3e
       0.16691679 0.08703138 0.24956077 0.24538125
000390 0b 91 2f 3d 47 7b 27 be 0a e2 63 3e 5f 4e 0c be
       0.042862933 -0.1635562 0.22254196 -0.13701771
0003a0 97 8c f1 bd 20 4b 43 3e e7 06 3c 3e 5a ca 9d 3d
       -0.117943935 0.19071627 0.18362008 0.07704611
0003b0 85 82 86 3c 90 61 53 be 09 10 1e bd 83 c1 68 3e
       0.016419658 -0.20642686 -0.03858951 0.22730069
0003c0 df 39 82 3d f8 91 65 3b a4 74 12 bd b4 a8 95 bd
       0.06358694 0.003502963 -0.03575577 -0.07307568
0003d0 09 e8 24 3e 48 6f b1 3a d8 97 04 3e 21 93 8c bd
       0.1610414 0.0013537193 0.12948549 -0.06864
0003e0 82 6c df 3d 55 b7 e1 3d 0a cf 37 3d a9 63 2e 3e
       0.10909368 0.11021296 0.044875182 0.17030205
0003f0 47 55 2d 3e df be 71 3e 8e 7d 3c 3e 5d 91 88 bd
       0.16927062 0.23607968 0.1840727 -0.06668351

fc1.bias f4 [16]
000000 3d 78 58 be cf 52 a4 3d 93 40 79 bc 9b 58 c6 bd
       -0.21139617 0.08023607 -0.01521315 -0.09684869
000010 92 43 2b bd 47 78 3e 3d 7a e9 49 3e 97 6a 9f 3d
       -0.041812487 0.046501424 0.1971797 0.07784002
000020 09 96 b5 bd 05 11 10 be ad 0c 6b bd 95 7b 13 be
       -0.088665076 -0.14068992 -0.057385135 -0.14402612
000030 60 e5 68 3e 58 6c 07 3e fc a9 65 3e a3 d6 98 3c
       0.2274375 0.13224924 0.22428125 0.018657034

fc2.weight f4 [16, 16]
000000 1e 42 4e 3d 95 53 b1 3d 77 05 72 be e5 a7 b6 3c
       0.050356023 0.0865852 -0.23634897 0.022296855
000010 c0 d2 88 bc 0b 5a 0f be 47 66 46 be 57 5a 62 3e
       -0.016702056 -0.13999192 -0.19374953 0.22104774
000020 ef e3 4f 3e 80 01 ed 3d 35 fd 73 3e f8 84 cf bd
       0.20301794 0.11572552 0.2382706 -0.10132784
000030 e7 a6 30 bd 9f 9d c1 3d 23 fc 28 bd d0 b2 48 bd
       -0.04312792 0.09453892 -0.04125608 -0.048998654
000040 4e 57 53 be e7 62 89 3d c3 84 1a be 0c c6 14 3c
       -0.20638773 0.06708317 -0.15089707 0.009080421
000050 e6 49 79 3e 96 68 9d bd 48 2e a1 bd 4c 42 1a 3e
       0.24344596 -0.07685964 -0.078701556 0.15064353
000060 18 02 bc bd 60 a9 af bc a5 be 6e 3e 66 a6 d1 bd
       -0.09180087 -0.021443069 0.23314913 -0.10236816
000070 c2 eb 36 be 06 18 0f be bc c6 8d bd 75 a5 f2 bd
       -0.17863372 -0.13974008 -0.06922671 -0.11847965
000080 2d af 04 be 1d 91 ce 3d 9f cd 2d 3d d0 ab a3 bd
       -0.1295745 0.10086272 0.042432424 -0.07991755
000090 71 a5 46 be c8 02 a1 bd df d1 d7 bd 22 69 a6 bd
       -0.19399048 -0.078618586 -0.105380766 -0.08125521
0000a0 2e a9 66 be 57 54 5c 3d e7 db 3b be fc 20 47 be
       -0.22525474 0.05379137 -0.18345605 -0.19446176
0000b0 a0 e7 50 be 64 70 d5 3d 30 ee 19 be de 11 d3 bd
       -0.20400858 0.104218274 -0.15032268 -0.10306142
0000c0 00 6b 48 3e c8 c2 07 3e 50 5c 0b 3e c2 31 73 be
       0.19572067 0.13257897 0.13609433 -0.2374945
0000d0 6e 5a 37 be d2 6a c3 bd 48 22 53 3e 3a 41 d1 3c
       -0.1790559 -0.09541859 0.20618546 0.025543798
0000e0 47 3a 3f be b9 ef cc 3a b1 95 46 be 35 82 60 bd
       -0.18674575 0.0015635408 -0.1939304 -0.054811675
0000f0 82 9d 8c bd 9e 56 5d 3e 36 22 9e 3d 07 4e 32 bd
       -0.0686598 0.21615073 0.07721369 -0.043531444
000100 7d c5 2c 3d 7b 5d bd bd b2 54 89 3d 3f 24 89 3d
       0.042180527 -0.092463456 0.067056075 0.066963665
000110 cf 53 89 3d 3d 23 05 be 2e 9c 38 3e 66 a7 13 bd
       0.06705438 -0.13001724 0.18028328 -0.036048315
000120 1e 16 c7 bd d8 b0 0c 3e 63 aa 4f 3e 2a 6d 5d 3e
       -0.097210154 0.13739336 0.20279841 0.21623674
000130 06 41 92 3d ff 52 ae bd dc e4 0f 3e 5f cb 39 3e
       0.071413085 -0.08511924 0.14052147 0.18143986
000140 4a c9 7a be 01 69 fd bc 9a 5e 2e be 60 99 3e 3d
       -0.24490848 -0.030933859 -0.17028275 0.04653299
000150 20 7f d3 3d 8e 49 53 bd d8 1e ab bc c3 2c e6 3d
       0.103269815 -0.05158382 -0.02088873 0.11239006
000160 94 e4 2b bd 71 b8 56 be 97 95 4c 3e d5 b0 00 be
       -0.041966036 -0.20968796 0.19978939 -0.12567456
000170 10 b7 e0 bc b4 f1 c0 3c 07 db 75 bc 62 85 70 be
       -0.027431041 0.023552753 -0.0150058335 -0.23488382
000180 54 9e ea 3d 3c 48 e8 bd 57 9d 04 be b0 59 74 3d
       0.1145598 -0.113419026 -0.12950645 0.059655845
000190 e8 6e 05 be 1d 56 ec bd ba 4e ac bd 8d 1c c0 bd
       -0.13030589 -0.11539862 -0.084134534 -0.09380446
0001a0 96 91 d5 bd 02 e9 89 bd b6 e4 84 3d 05 e8 4e be
       -0.10428159 -0.06733896 0.06488936 -0.20205696
0001b0 27 c3 1a be 29 c6 6e 3b 47 3b 0e 3d d3 36 0d 3e
       -0.15113507 0.003643403 0.0347245 0.13790445
0001c0 18 9b 33 be ad 3a a3 3d 70 54 11 3e 05 f9 0d 3e
       -0.17539632 0.07970176 0.14192367 0.13864525
0001d0 fe 26 6e be 6d 24 c3 bd 96 c7 5b be 35 cd 21 be
       -0.23257062 -0.09528432 -0.21462855 -0.15800937
0001e0 d5 69 0e 3e 3e b7 18 bd a3 2f d9 3d f6 16 16 be
       0.13907559 -0.03728413 0.10604789 -0.14657196
0001f0 a4 6a 1b 3d 8b a7 1a be ae a1 ff 3d 13 aa df bd
       0.037943497 -0.15102975 0.1248201 -0.10921111
000200 4e 3b 80 bd 13 33 6d be 3a ca d5 bc 04 9e 54 3e
       -0.062613115 -0.23164015 -0.026097406 0.20763403
000210 ad 35 f8 3d 98 2f 26 be ab 8b e0 bc 1c 49 e0 bc
       0.12119613 -0.16229093 -0.027410349 -0.027378611
000220 d7 d8 4d be 51 5f 35 3e 79 7b 1b 3c 6c 85 b5 3c
       -0.20102249 0.17712142 0.009489887 0.022158347
000230 49 53 c3 bd 10 48 ef bd ef 54 5f 3d 1e f0 7b 3d
       -0.0953737 -0.11683667 0.05452436 0.06150829
000240 6b 66 65 3d 2d cd d3 bd de 5c 82 3e 17 50 ba bc
       0.056005877 -0.103418685 0.25461477 -0.022743268
000250 2c 96 1c be 7d ed d0 bd 7a b7 84 3e c7 c0 49 37
       -0.15291661 -0.10201547 0.25921232 1.2025418e-05
000260 13 d5 0a bd c1 26 b6 bd 04 5d 77 bd 02 78 49 be
       -0.03389461 -0.088941105 -0.06039144 -0.19674686
000270 16 11 47 be a3 a6 15 3e 6a 2e 65 3e 9d 14 81 3e
       -0.19440112 0.14614348 0.22380987 0.2521104
000280 68 97 38 be 5a d7 19 3e 08 5a 15 be 25 11 24 3e
       -0.18026507 0.15023556 -0.14585125 0.16022165
000290 fa 7d 38 3e 96 e3 51 3e 39 85 43 3e 6c f3 1f 3e
       0.18016806 0.20496973 0.19093789 0.15620202
0002a0 4b 40 9f 3b 6c e6 03 3e d5 26 ad bd 8f 36 f5 3d
       0.0048599592 0.12880868 -0.08454672 0.11973297
0002b0 79 9a 97 bd ef 62 89 bb ca c6 50 be 50 0b 5d bd
       -0.0740251 -0.004192702 -0.20388332 -0.053965867
0002c0 80 75 06 be e9 d5 a6 bd ae 82 1d be bf 7d 67 be
       -0.1313076 -0.08146269 -0.15381882 -0.22606562
0002d0 16 32 85 3c e3 e9 26 3e 4b f6 64 3e 18 35 15 3e
       0.016259234 0.16300158 0.22359578 0.14571035
0002e0 39 88 04 be 12 7f 83 be 73 78 bb 3d 3f 6e 0c 3e
       -0.1294259 -0.25682884 0.09153833 0.1371393
0002f0 74 b1 5a be 2c 5f b7 3d 4a 29 46 3e 54 c7 48 3c
       -0.21356755 0.089536995 0.19351688 0.012254555
000300 82 0a 1a be 3a 69 49 3e 6a 3f c8 3d 1f 55 23 3e
       -0.15043071 0.19669047 0.0977772 0.1595044
000310 e1 ea 2c be 19 6f 0c 3e 8b 68 34 be 38 00 7d 3e
       -0.16886474 0.13714255 -0.17618005 0.24707115
000320 39 ab d8 bd e7 2e 15 3e f4 cb 4c 3d 13 0f 75 3d
       -0.10579533 0.14568673 0.049999192 0.05982883
000330 e7 d7 1c bd 10 0a d2 3d 53 20 d5 bd 1e 71 77 be
       -0.038291838 0.102558255 -0.10406556 -0.24164245
000340 a2 78 c4 bd ed 57 5e 3e af b8 b9 bc 38 8c 00 3e
       -0.095933214 0.21713229 -0.022671072 0.12553489
000350 78 11 bd bd b1 bc 6d 3e ab 14 4a 3e 90 85 b4 3d
       -0.092318475 0.23216511 0.19734447 0.088145375
000360 88 b2 02 be ba 8a 3f be 6b 5f 42 3c 84 70 ca bd
       -0.12763417 -0.18705264 0.01186357 -0.09884742
000370 50 a7 50 3e 81 b5 75 be 0e 2f 01 3e 1e f0 97 3e
       0.20376325 -0.2399502 0.12615606 0.29675382
000380 18 0e 00 3e e6 e0 8f 3d 58 a0 82 be f0 b2 66 3e
       0.12505376 0.07025318 -0.25512958 0.22529197
000390 41 f0 2e bd 16 29 7e be fc 28 6d 3e f3 17 d0 bd
       -0.042709593 -0.2482036 0.23160166 -0.10160818
0003a0 c3 b6 90 bc ce c7 5a 3e 18 3e 31 be f3 23 44 be
       -0.017665273 0.21365282 -0.17308843 -0.19154339
0003b0 11 51 26 3d 20 e6 08 bd d6 94 6b 3d c1 b0 65 be
       0.040604655 -0.03342259 0.057514988 -0.22430708
0003c0 ff b1 f4 3b 41 70 e3 bd 4f 65 fb bd cf 1d 6a be
       0.007467508 -0.11105395 -0.122751825 -0.22862934
0003d0 e6 91 07 3e b1 04 45 3d 36 2b 58 be ac e6 4a 3e
       0.1323925 0.048100177 -0.21110234 0.19814557
0003e0 a7 3d 9a 3d c1 c8 3d 3d 7c 1f 16 be 1c 3c 1a 3d
       0.075312905 0.046334032 -0.14660448 0.03765498
0003f0 58 5d 76 3e 31 5f 2f 3e a4 25 47 be 88 65 69 3e
       0.24059045 0.17126156 -0.19447953 0.22792637

fc2.bias f4 [16]
000000 ac 8b 9e 3c ed f3 f5 3d 0d 96 46 3e a8 bc 5a 3e
       0.01935371 0.12009416 0.19393177 0.21361029
000010 02 b6 64 be 48 e5 5f 3e 01 a8 2d be c5 57 99 3c
       -0.22335055 0.21864808 -0.1695862 0.01871861
000020 da 01 50 be 88 ab 25 bd b0 b9 f0 3a 5c e2 18 bd
       -0.20313206 -0.040446788 0.0018365886 -0.037325248
000030 a8 9f 3f bd 0c 6e 85 3d 51 f8 6c 3e a9 8e 14 3e
       -0.04678312 0.065151304 0.231416 0.14507546

fc3.weight f4 [4, 16]
000000 a2 0c 0f 3e 1d ad cc 3d b8 f2 45 3e ae 8d bd bc
       0.13969663 0.09993956 0.19330871 -0.023138847
000010 33 17 83 3d 6f 7a 52 3d 15 fe 5e be 75 f8 4d be
       0.06400909 0.051386293 -0.21776612 -0.2011431
000020 bb 7b 98 3d 7b 06 5b bd aa ba 21 3d cf bc 6c bc
       0.07445475 -0.053472977 0.039484657 -0.014449312
000030 7f 7f 7a 3d ee b1 51 3e c5 1a 8b bd 0d c5 4c 3e
       0.061156746 0.20478031 -0.06792215 0.19997044
000040 66 e1 49 3e 46 3d 44 be c3 72 45 be 8c e1 61 be
       0.19714889 -0.19163999 -0.1928206 -0.22058696
000050 6a f3 0a be d2 10 c7 bd a4 f6 99 bc 70 b9 78 bd
       -0.13569418 -0.09720005 -0.018794365 -0.060723722
000060 9e 29 ff bd 33 69 a3 bd 05 82 b5 bd 5f 05 77 3e
       -0.1245911 -0.079790495 -0.0886269 0.24123143
000070 a3 8c a6 bd 96 ea 35 be d7 38 e0 3d 4d 4d 6c bc
       -0.08132293 -0.17765269 0.10948341 -0.014422727
000080 9e be 43 3e e4 c2 1f 3e 21 e8 6a 3e ec 35 25 be
       0.19115683 0.15601689 0.22940113 -0.16133851
000090 06 7c fe 3d 1a 95 56 3e 4f 88 fc bd af 05 6b 3e
       0.12425999 0.20955315 -0.12330686 0.22951387
0000a0 fd 03 20 3e 1e 70 19 bd 4e 0a aa 3d 8c 96 06 be
       0.15626521 -0.03746044 0.08302747 -0.13143367
0000b0 b4 80 4e be 79 c8 b8 3c c8 ed 73 3d 32 1b 27 be
       -0.20166284 0.02255653 0.059552938 -0.16318968
0000c0 2a 04 f8 3d d2 69 5a be e8 0c 5c 3e a5 ee 79 3e
       0.12110169 -0.2132943 0.21489298 0.24407442
0000d0 c7 bd bc 3d d5 6c 20 be f0 de f8 3d da 4a 2e 3d
       0.09215885 -0.15666516 0.12151897 0.042551853
0000e0 f7 70 b7 3d 91 32 d9 3d d1 23 5b 3e e2 3d a2 bd
       0.08957093 0.10605348 0.21400382 -0.079219595
0000f0 10 19 94 bd 8e 9e c0 3d f9 6a 2c 3d 16 2e 4e 3e
       -0.07231343 0.09405242 0.042094205 0.20134768

fc3.bias f4 [4]
000000 5a 32 ba bd 3e 11 51 bc f8 b2 e4 3b 4a 5d 24 bd
       -0.09091635 -0.0127604585 0.0069793426 -0.04012803
