Code_Webots/Deep_Q_learning_results/best_weights_using_gs_fc_128_100ms_ExperienceReplay.pt (torch, 72311 bytes, 6 tensors)

0.weight f4 [128, 3]
0	0x3ede878f	0.43462798
1	0x3ed8852c	0.42289102
2	0xbe291747	-0.16512786
3	0x3f0d3e3f	0.55173105
4	0xbe40eff6	-0.18841538
5	0x3dce8541	0.1008401
6	0xbe9092a3	-0.28236875
7	0x3ed7bae8	0.42134786
8	0x3ecb9b32	0.39766842
9	0xbedf6245	-0.4362966
10	0x3ef66f7e	0.48131937
11	0x3e1da684	0.15395552
12	0x3ec88c91	0.39169744
13	0xbcb8b9dd	-0.022549564
14	0x3e9a4d39	0.3013704
15	0xbe0ca449	-0.13734545
16	0x3ef5671d	0.47930232
17	0x3d864609	0.06556327
18	0xbe5b44f2	-0.2141302
19	0x3e5f2f1a	0.21795312
20	0xbeb83ba1	-0.35982993
21	0xbd8beb51	-0.068319924
22	0xbea27dbf	-0.31736562
23	0x3edd1400	0.4317932
24	0xbec996fe	-0.3937301
25	0xbe89d19f	-0.2691774
26	0xbdea1737	-0.11430209
27	0xbe9d2bc7	-0.30697462
28	0x3e43b8d8	0.19113481
29	0xbf1cd65c	-0.61264586
30	0x3ed7d087	0.4215128
31	0xbf0c6670	-0.5484381
32	0x3f026fdd	0.5095194
33	0xbdb00230	-0.08594167
34	0xbde5fd04	-0.112298995
35	0x3eccc118	0.3999107
36	0x3ba31d05	0.0049778246
37	0x3f060f4e	0.52367103
38	0xba94366b	-0.0011307722
39	0xbe201d98	-0.15636289
40	0x3e86aa4b	0.26301798
41	0xbe823a8f	-0.25435302
42	0x3deb48c9	0.11488492
43	0x3edda30e	0.43288463
44	0x3eb8ad13	0.36069545
45	0xbead528e	-0.33852047
46	0x3ec90459	0.3926113
47	0x3e28d21a	0.16486397
48	0x3eae9201	0.34095767
49	0xbe7e0a2b	-0.24808566
50	0xbf27e829	-0.65588623
51	0xbe82922b	-0.25502142
52	0xbef2be0c	-0.4741062
53	0x3f154067	0.58301395
54	0x3dec98a5	0.11552552
55	0x3ea32dde	0.3187093
56	0x3df04c58	0.117333114
57	0x3bc002ff	0.005859732
58	0x3efe69ae	0.49690002
59	0xbef76e9b	-0.48326573
60	0xbd7b9feb	-0.061431807
61	0xbee57bf0	-0.4482112
62	0x3ea7bd3b	0.3276156
63	0xbe323640	-0.17403507
64	0x3e1e51ad	0.15460844
65	0xbdd781c9	-0.105228014
66	0x3eecc8ba	0.46246892
67	0xbea4f649	-0.3221915
68	0xbea50afe	-0.3223495
69	0xbec1f73e	-0.37883943
70	0x3f033339	0.51250035
71	0x3e6655c9	0.22493662
72	0x3f136ccf	0.57587904
73	0xbec6c30f	-0.38820693
74	0xbf273da8	-0.65328455
75	0xbecf0d42	-0.40439802
76	0xbec8ccb2	-0.3921867
77	0x3e84c4f5	0.25931516
78	0x3e1fd98b	0.1561033
79	0x3f0e238a	0.5552298
80	0xbeb13e8b	-0.3461803
81	0xbe97bfe9	-0.29638603
82	0x3e9bb792	0.3041349
83	0xbea3944e	-0.31949085
84	0x3ea03258	0.3128841
85	0xbe522cec	-0.20524949
86	0x3eb2ba1e	0.3490762
87	0xbecec12b	-0.4038175
88	0xbeaea8ae	-0.34113067
89	0x3e88ee96	0.26744527
90	0x3e13db73	0.14439182
91	0xbe49d5c9	-0.19710459
92	0x3ea01a11	0.31269887
93	0x3efb1a1e	0.49043363
94	0xbed721d2	-0.4201799
95	0xbeab480f	-0.33453414
96	0x3f0fd334	0.56181645
97	0xbe0e6524	-0.1390577
98	0xbeba0eee	-0.36339515
99	0xbf0f94ba	-0.56086314
100	0xbe97d854	-0.29657233
101	0x3e52c990	0.20584702
102	0x3d128a7a	0.035776593
103	0xbeed3131	-0.46326593
104	0x3d12932d	0.03578489
105	0xbeb0ae74	-0.34508097
106	0xbedb575c	-0.42840087
107	0xbe8e48c9	-0.27789906
108	0xbee48bf9	-0.4463804
109	0xbee87101	-0.45398715
110	0x3f241d5b	0.6410729
111	0x3dd6a1e4	0.10480097
112	0x3e4ac35f	0.1980109
113	0xbf0563f7	-0.5210566
114	0xbea40d97	-0.32041618
115	0xbe7aaecb	-0.2448074
116	0x3df41433	0.11917915
117	0xbedf0864	-0.4356109
118	0xbe72a31d	-0.23695035
119	0xbe9792ee	-0.29604286
120	0x3c94413e	0.018097516
121	0xbe5b500e	-0.21417257
122	0xbcc4c62b	-0.024020275
123	0xbea8bf9c	-0.32958686
124	0xbec85803	-0.39129648
125	0xbe8cdfa7	-0.27514383
126	0xbe1d9b74	-0.15391332
127	0xbf0aef48	-0.54271364
128	0x3f044e6a	0.5168215
129	0xbdb70177	-0.08935826
130	0x3f01ae43	0.5065653
131	0x3d8a6742	0.06757976
132	0xbeed2268	-0.46315312
133	0x3ed9fe72	0.4257694
134	0xbe4b4d52	-0.19853714
135	0xbd698215	-0.05700882
136	0xbee1ef93	-0.44128093
137	0xbf1cb591	-0.6121455
138	0x3e573b74	0.21018773
139	0xbe65a0d8	-0.22424638
140	0x3e5877ab	0.211394
141	0xbeee6f55	-0.46569315
142	0x3f00ce6c	0.50314975
143	0xbedb0a2b	-0.42781195
144	0xbdcfb690	-0.10142243
145	0x3b840229	0.004028578
146	0x3ebb6f9d	0.36608592
147	0x3eaa6a26	0.3328411
148	0x3f170a61	0.5900021
149	0xbeed3656	-0.46330518
150	0x3df7cf18	0.12100047
151	0xbe586d88	-0.21135533
152	0xbd6b7a0d	-0.057489444
153	0xbed43841	-0.41449168
154	0x3f1dbfd1	0.61620814
155	0xbef6b6d3	-0.4818636
156	0x3e8a5a49	0.27022007
157	0x3e35c9c7	0.17752753
158	0x3e2817bf	0.16415308
159	0xbeadf8a8	-0.33978772
160	0x3f0e5dde	0.5561198
161	0x3ddf5fc5	0.109069385
162	0xbc8e5230	-0.017373174
163	0xbf0050d4	-0.50123334
164	0x3ec30dde	0.38096517
165	0xbdb58f84	-0.08865264
166	0xbea079ae	-0.31342834
167	0x3f0793c1	0.5295983
168	0x3e761a48	0.24033463
169	0xbee75b2e	-0.45186752
170	0xbe62a1d3	-0.22132044
171	0xbd7b52bc	-0.0613582
172	0x3ec361a8	0.38160443
173	0xbe330042	-0.17480567
174	0xbe91cd71	-0.28477052
175	0xbd567927	-0.052361634
176	0xbf034031	-0.51269823
177	0x3e5b9c06	0.21446237
178	0x3eceaaa8	0.40364575
179	0xbf0fd01b	-0.5617692
180	0x3dfc506d	0.123200275
181	0x3e7bc7bf	0.24587916
182	0x3dca61f9	0.09881968
183	0xbe800f8c	-0.2501186
184	0x3ece77ea	0.40325862
185	0x3e75220d	0.2393877
186	0x3e4f567b	0.20247833
187	0xbe1b8a52	-0.15189484
188	0xbdf9b582	-0.12192823
189	0x3d8f8378	0.070074975
190	0xbde071af	-0.109591834
191	0xbe169031	-0.14703442
192	0x3ec787f4	0.38970912
193	0x3ee50521	0.44730476
194	0xbe2e4b0e	-0.17020819
195	0xbde738b6	-0.11290114
196	0x3bf12507	0.0073591503
197	0xbcf6c623	-0.030123776
198	0x3e207bc3	0.15672211
199	0x3e16b58f	0.14717697
200	0xbf00f0bf	-0.5036735
201	0xbe16a306	-0.14710626
202	0x3efbba06	0.49165362
203	0x3d7668e7	0.060158636
204	0xbccdca79	-0.02512096
205	0xbe9bdafc	-0.3044051
206	0xbe9e0c32	-0.3086868
207	0xbf059bcf	-0.5219087
208	0xbe37fe6e	-0.17968151
209	0x3e7b2b3b	0.2452821
210	0x3e9aadc0	0.30210686
211	0x3e88b7f6	0.2670285
212	0xbeed84c3	-0.46390352
213	0xbeb97bfb	-0.36227402
214	0xbdeb38d2	-0.11485447
215	0x3f17be8c	0.59275126
216	0x3c0e902e	0.008701367
217	0xbe59d65c	-0.21273178
218	0x3ea7e0e3	0.32788762
219	0xbe540c2e	-0.20707771
220	0xbec51362	-0.3849135
221	0x3ee0cbe0	0.43905544
222	0xbe7390a7	-0.23785649
223	0xbc20b557	-0.00980886
224	0xbf1a13bf	-0.6018638
225	0x3eacef56	0.3377635
226	0x3ec3ef04	0.38268292
227	0x3e3c6471	0.1839769
228	0xbe2e5b0e	-0.17026922
229	0xbf277411	-0.6541148
230	0xbed33fe8	-0.41259694
231	0x3eceeec6	0.40416545
232	0x3ddabace	0.106801614
233	0x3efc49a0	0.4927492
234	0x3ebb201b	0.36547932
235	0x3d8d473d	0.06898353
236	0xbcf7af4a	-0.030234952
237	0xbec4ab54	-0.38411963
238	0xbedd869c	-0.4326676
239	0xbef185ea	-0.4717248
240	0x3ec9a161	0.39380935
241	0xbeacc248	-0.33741975
242	0xbe38915d	-0.18024202
243	0xbeb1c209	-0.3471835
244	0x3d0abcd2	0.03387148
245	0xbeea1021	-0.4571543
246	0xbea2545d	-0.3170499
247	0x3e5e7e85	0.21727951
248	0xbe7a149c	-0.24421924
249	0x3ee3b457	0.44473526
250	0xbe4449d2	-0.19168785
251	0xbefdf21a	-0.4959877
252	0xbd9ef078	-0.077607095
253	0xbe74acbd	-0.2389402
254	0xbe2bc498	-0.16774213
255	0xbf0aa9f3	-0.5416557

0.bias f4 [128]
0	0x3db0533c	0.08609626
1	0x3f16825c	0.5879266
2	0xbeec33b2	-0.4613319
3	0xbe3b257f	-0.18276022
4	0x3ebb1086	0.36536044
5	0xbe1926d8	-0.14956224
6	0xbe28407f	-0.16430853
7	0xbe371d35	-0.17882235
8	0x3efd5b28	0.4948361
9	0x3e19ef15	0.15032609
10	0x3e65f6d8	0.22457445
11	0xbea96d1a	-0.3309105
12	0xbebf5255	-0.37367502
13	0x3d23cf82	0.039992817
14	0x3e8d8077	0.27637073
15	0xbe42c43a	-0.19020167
16	0xbe06cdaa	-0.13164392
17	0x3edf0bcb	0.43563685
18	0x3e11a1ff	0.14221953
19	0xbb58140e	-0.0032970938
20	0x3b1d25de	0.002397887
21	0xbee9b425	-0.45645252
22	0xbf0ea72b	-0.5572383
23	0xbe616f96	-0.22015223
24	0xbec527ba	-0.3850687
25	0x3e6997c8	0.22811806
26	0xbda20d4f	-0.07912695
27	0xbeaa55c6	-0.33268565
28	0x3f1f7687	0.62290233
29	0x3e7a78da	0.24460164
30	0x3ef5387d	0.4789466
31	0xbea9f5f4	-0.3319546
32	0xbe896017	-0.26831123
33	0x3e9e08d8	0.30866122
34	0xbeb55fe1	-0.35424712
35	0xbea90a92	-0.33015877
36	0x3cae2c06	0.021261226
37	0xbd5b6fa1	-0.053573254
38	0xbecea40b	-0.4035953
39	0x3ee640be	0.4497127
40	0x3f0e2b23	0.5553457
41	0x3e70653d	0.2347612
42	0xbd736a21	-0.059427384
43	0xbeff8b68	-0.49911046
44	0xbe823268	-0.25429082
45	0x3e7b6752	0.24551132
46	0x3e9d9159	0.30774954
47	0xbd5d3569	-0.054006014
48	0xbe392480	-0.1808033
49	0x3ec2dbae	0.38058227
50	0xbed0f987	-0.40815374
51	0x3eba8904	0.3643266
52	0xbe489d91	-0.19591357
53	0x3b041415	0.0020153571
54	0xbd802cf4	-0.06258574
55	0x3ddf77d5	0.10911528
56	0xbe29ff6b	-0.1660134
57	0x3ef3a6a3	0.4758807
58	0xbaf40c5b	-0.0018619405
59	0x3ed47c25	0.41500965
60	0x3f203b3a	0.6259037
61	0xbe68f5b5	-0.2274998
62	0xbebdf5ce	-0.37101597
63	0x3f0da448	0.553288
64	0x3ef5f176	0.48035783
65	0xbec572ca	-0.3856414
66	0x3d9396a7	0.07206469
67	0xbf10765f	-0.5643062
68	0xbed3affe	-0.4134521
69	0x3e5d451a	0.21608391
70	0x3e4c102e	0.19928047
71	0x3e209fe5	0.15685995
72	0xbd8fbc85	-0.07018379
73	0x3f1718cb	0.59022206
74	0x3db01125	0.0859702
75	0xbe98b278	-0.2982366
76	0xba83d181	-0.0010056944
77	0x3e16a18e	0.14710066
78	0x3eb279aa	0.34858447
79	0xbeb6da4f	-0.3571343
80	0x3e95dfdc	0.29272354
81	0xbe4f0a47	-0.20218764
82	0xbee16341	-0.44021037
83	0xbe73e5bc	-0.23818105
84	0x3f16bf32	0.5888549
85	0x3ef0506c	0.46936357
86	0x3f1753f0	0.59112453
87	0x3eb71bc7	0.3576338
88	0x3eeec7fa	0.46636945
89	0xbadbbc23	-0.0016764443
90	0xbe5c098a	-0.21488014
91	0x3e98b29c	0.29823768
92	0xbe4cfc28	-0.20018065
93	0xbebd0bfd	-0.3692321
94	0xbe59ac42	-0.21257117
95	0x3e2d1bc3	0.16905122
96	0x3ebb975e	0.36638921
97	0xbe2e9f94	-0.17053062
98	0xbe94803f	-0.29004094
99	0x3ac981bf	0.001537375
100	0xbe988961	-0.29792312
101	0xbea440ba	-0.32080632
102	0x3eb41cf0	0.35178328
103	0xbe1ebb82	-0.15501216
104	0x3ee3a276	0.44459885
105	0x3f1ef54e	0.62093055
106	0x3e098f4f	0.13433574
107	0x3e955f0a	0.29174072
108	0x3e796dec	0.24358338
109	0x3d1e5d81	0.03866339
110	0x3d44ac08	0.048015624
111	0x3cef3ccb	0.029203793
112	0x3e6ac21b	0.22925608
113	0x3f19ec7d	0.6012648
114	0xbe52e091	-0.20593478
115	0xbea57be3	-0.3232108
116	0xbd206d15	-0.03916653
117	0xbe79b72d	-0.24386282
118	0x3e06244a	0.1309978
119	0x3ecf632b	0.40505347
120	0x3f066b87	0.52507824
121	0x3e88e38b	0.26736102
122	0xbebd1f1f	-0.36937806
123	0xbe900246	-0.28126734
124	0xbdcf21de	-0.101138815
125	0xbc81a03c	-0.015823476
126	0x3de151a8	0.11001903
127	0xbeda0706	-0.42583483

2.weight f4 [128, 128]
0	0x3cc526ef	0.024066417
1	0xbd7140f8	-0.05889985
2	0xbd485eae	-0.04891842
3	0xbd839cc2	-0.064263836
4	0x3d8a1e69	0.067440815
5	0xbd960cc1	-0.07326651
6	0x3d6e8445	0.05823161
7	0xbb2a4df4	-0.0025986405
8	0xbc135392	-0.008992093
9	0x3d461709	0.04836181
10	0xbbe9b4f8	-0.007132169
11	0x3d469da0	0.048490167
12	0x3d64bd21	0.05584443
13	0xbd899cb9	-0.067193456
14	0x3cf36898	0.02971296
15	0x3c6ec1ff	0.014572619
16	0x3c884843	0.01663602
17	0x3c38e98c	0.011286151
18	0x3cad1ec2	0.02113283
19	0xbd1879ac	-0.03722541
20	0xbc221943	-0.009893718
21	0x3d9692bb	0.07352205
22	0x3d54c916	0.051949583
23	0xbb3e64d3	-0.0029051795
24	0xbd94fec2	-0.07275154
25	0x3b5e1104	0.0033884654
26	0xbd57ad03	-0.05265523
27	0x3d80a612	0.062816754
28	0xbd4051c7	-0.04695299
29	0xbbb6f0d9	-0.0055829105
30	0xbc8c965e	-0.017161544
31	0x3c615c23	0.013754877
32	0x3d9513af	0.07279145
33	0x3bf06107	0.0073357853
34	0x3d376c15	0.04478081
35	0x3d758cc1	0.059948687
36	0x3d7f6a71	0.06235737
37	0xbcdab2fc	-0.026696675
38	0xbc8d9a4f	-0.017285494
39	0x3d18bcf2	0.037289567
40	0xbcacb6bc	-0.021083228
41	0x3d145621	0.03621495
42	0xbc8a8758	-0.01691024
43	0xbd56d056	-0.05244478
44	0x3d00cb67	0.03144398
45	0x3c42428f	0.011856689
46	0x3d0d2b38	0.034465045
47	0x3d9d346d	0.07676015
48	0x3d583bb3	0.05279131
49	0x3d9638a0	0.07335019
50	0x3b87aeaf	0.004140697
51	0xbd884f2b	-0.06655725
52	0xbd5e282d	-0.054237533
53	0xbd44bd41	-0.04803205
54	0xbd8b9f12	-0.0681745
55	0xbd1e9bbf	-0.03872275
56	0xbd91b5c0	-0.07114744
57	0xbd920c01	-0.07131196
58	0xbd3d3421	-0.046192292
59	0xbd9c0cea	-0.07619651
60	0xbd426df7	-0.047468152
61	0x3cf12bfc	0.029439919
62	0x3d840c21	0.06447626
63	0xbcbc51e0	-0.02298826
64	0xbcb83a1d	-0.022488648
65	0x3d291abe	0.04128527
66	0xbd1c2ffa	-0.03813169
67	0xbd15d70e	-0.036582045
68	0x3d432815	0.047645647
69	0xbd8a1da9	-0.067439385
70	0x3c1ae60a	0.00945426
71	0x3d8beff8	0.0683288
72	0x3c594045	0.013259952
73	0x3cac25d2	0.021014128
74	0xbd386c73	-0.0450253
75	0xba8be0d2	-0.001067186
76	0x3b8b664d	0.0042541386
77	0x3c9b6eb4	0.018973686
78	0x3cf5d475	0.030008534
79	0x3d89baa8	0.06725055
80	0xbd71642d	-0.058933426
81	0x3b1808b4	0.0023198547
82	0xbd1e13e2	-0.03859318
83	0xbd7a6a7b	-0.061136704
84	0xbbcad75e	-0.0061902246
85	0xbd8b78b8	-0.06810135
86	0x3d5cff7a	0.05395458
87	0x3c12b072	0.008953201
88	0xbd2aa33b	-0.041659575
89	0x3d259ebc	0.040434584
90	0xbd95f730	-0.07322538
91	0xbcf4b4a5	-0.029871294
92	0xbc76884d	-0.015047145
93	0xbd869ad2	-0.065724984
94	0xbd495b32	-0.049159236
95	0xbc4ec649	-0.012620517
96	0x3d6fee93	0.05857713
97	0x3d9901a1	0.07471014
98	0x3d49793e	0.04918789
99	0xbd3d0f13	-0.046156954
100	0xbd4f337d	-0.050586212
101	0x3d8a57b3	0.067550085
102	0x3ce009ce	0.027348425
103	0x3b06ac29	0.0020549393
104	0x3c2b5d1f	0.0104592135
105	0xbd7e4db3	-0.06208582
106	0xbcd37e53	-0.025817072
107	0x3d988c61	0.0744865
108	0xbc9c27c2	-0.019061927
109	0xbb7df951	-0.003875334
110	0xbd8370e9	-0.0641802
111	0xbd313d9e	-0.043271653
112	0xbacef2fd	-0.0015788969
113	0xbd44bc1b	-0.048030954
114	0xbc1cfe00	-0.009582043
115	0x3d00c462	0.031437285
116	0xbd9ae53c	-0.07563254
117	0x3cbc0897	0.022953315
118	0xbd516a1c	-0.051126584
119	0xbd1a951a	-0.03773985
120	0x3cf2d88a	0.02964427
121	0x3d7baa0b	0.061441462
122	0xbcacfbe5	-0.021116206
123	0xbd01f17f	-0.03172445
124	0xbd8f06a6	-0.0698369
125	0xbd236403	-0.0398903
126	0xbd8aca50	-0.06776869
127	0xbc90df80	-0.017684698
128	0x3d9ce829	0.076614685
129	0x3c15e672	0.009149181
130	0x3dd019c9	0.10161168
131	0x3dcb0bd4	0.099143654
132	0x3bd40b96	0.0064711077
133	0xbaab8fd3	-0.0013089128
134	0x3d54f2fe	0.051989548
135	0xbad0b77a	-0.0015923821
136	0x3dad58eb	0.084642254
137	0xbbbb05f1	-0.0057074954
138	0x3e11ac81	0.14225961
139	0xbd902d92	-0.07039942
140	0x3c88c750	0.016696602
141	0x3d3dec16	0.046367727
142	0x3daeb5aa	0.085307434
143	0x3dcfb2a3	0.10141494
144	0x3c97d17a	0.018532503
145	0x3cf9bcd9	0.030485557
146	0x3d300baf	0.042979892
147	0x3d6f6a40	0.058450937
148	0xbc7bd666	-0.015370941
149	0x3c8fa0fe	0.017532822
150	0xbcf60cda	-0.030035425
151	0x3db39958	0.087694824
152	0x3d144921	0.036202554
153	0x3d9003ea	0.070319965
154	0x3d30ff76	0.043212377
155	0x3c76cc38	0.015063338
156	0x3e11e0d0	0.14245915
157	0x3b5fd8d4	0.003415634
158	0x3db3cb3d	0.08778999
159	0x3d9bfa3b	0.07616087
160	0x3da792fb	0.08182331
161	0x3dd175c8	0.10227543
162	0xbb868c08	-0.0041060485
163	0x3d7341c8	0.059388906
164	0x3d40a57f	0.04703283
165	0x3d001265	0.031267542
166	0xbdbad7f0	-0.09123218
167	0x3da374d6	0.07981269
168	0x3e2796fe	0.16366193
169	0x3de0fb5b	0.10985442
170	0xbb811abb	-0.003939954
171	0xbb971e35	-0.0046117553
172	0x3ceba3ea	0.028764684
173	0x3e1a00e7	0.15039407
174	0x3c99c37d	0.018769974
175	0x3d24e1f2	0.04025454
176	0xbd380a99	-0.04493198
177	0x3b7dea09	0.0038744232
178	0x3ce216e4	0.027598806
179	0x3dca736a	0.09885295
180	0x3c54c3e3	0.012986156
181	0x3e0ed7f9	0.13949575
182	0x3d869e20	0.06573129
183	0x3de2e9e8	0.1107977
184	0x3e122bf9	0.14274587
185	0x3e064d4c	0.13115424
186	0xbd49cf43	-0.049269926
187	0x3dcc961d	0.09989569
188	0x3e1e54fe	0.1546211
189	0x3c5ce3cb	0.013482044
190	0x3d2d371c	0.042288885
191	0x3d335b4e	0.043788247
192	0x3da2d185	0.07950119
193	0xbd8037de	-0.06260656
194	0x3dbbb632	0.091656104
195	0xbc825fb8	-0.015914783
196	0xbd89b56a	-0.06724055
197	0x3d84468e	0.0645877
198	0x3d2d010f	0.042237338
199	0x3db8fcd7	0.090326004
200	0x3d9f9917	0.077928714
201	0x3bd5309b	0.0065060384
202	0x3da802b7	0.08203643
203	0x3d84cb87	0.06484132
204	0x3e009471	0.12556626
205	0x3b1c1334	0.0023815157
206	0x3d7bd81a	0.061485387
207	0xbcb79021	-0.022407593
208	0x3d6a74bc	0.057240233
209	0x3d1abdc7	0.037778642
210	0xbd70c400	-0.05878067
211	0x3dc52ae2	0.0962732
212	0x3dab4045	0.08361868
213	0x3daeddd8	0.08538407
214	0x3e0989c8	0.13431466
215	0xbbd5a004	-0.0065193195
216	0xbc5a6084	-0.013328675
217	0xbba0fa5c	-0.0049126577
218	0x3de2b037	0.110687666
219	0xbd34d68b	-0.044149917
220	0xbbae3942	-0.0053168843
221	0x3d18980d	0.037254382
222	0x3d273491	0.040821616
223	0x3e002e8b	0.12517755
224	0x3c9c2d37	0.019064529
225	0xbc7b86b6	-0.015351942
226	0x3da179a9	0.07884533
227	0x3db103f2	0.08643331
228	0x3d3d77a0	0.04625666
229	0x3ca0ad56	0.019613903
230	0x3db0662a	0.08613236
231	0x3de156c2	0.11002876
232	0x3c3d5f7e	0.011558412
233	0x3d60c0b8	0.05487129
234	0x3d96da43	0.07365849
235	0x3c946314	0.01811365
236	0x3d77341e	0.060352437
237	0x3ddc27b3	0.107497595
238	0x3d8b71e8	0.06808835
239	0x3d91fa85	0.07127861
240	0x3cac5af6	0.021039467
241	0x3de43cec	0.111444324
242	0x3d74afe3	0.05973805
243	0xbc84c26b	-0.016205987
244	0x3d8c1b73	0.06841173
245	0x3d16c02e	0.03680437
246	0x3984de7d	0.0002534277
247	0x3e1c08bd	0.15237708
248	0x3d8adbf0	0.06780231
249	0x3d65e0b7	0.056122508
250	0x3c9fd94a	0.019512791
251	0xbd115c7b	-0.035488587
252	0xbdbd3e27	-0.0924037
253	0x3dbd83aa	0.092536286
254	0x3dded8ca	0.10881193
255	0xbb7ba202	-0.0038396125

2.bias f4 [128]
0	0xbd8706cb	-0.065930925
1	0x3e3bd556	0.183431
2	0x3c14e261	0.009087176
3	0xbd06e599	-0.032933805
4	0x3e0a0214	0.13477355
5	0x3e05d599	0.13069762
6	0xbba5d920	-0.0050612837
7	0x3d98c436	0.07459299
8	0x3e55db22	0.20884374
9	0xbd8f3dda	-0.06994219
10	0xbd61df56	-0.05514463
11	0xbd9af65f	-0.07566523
12	0x3e609f50	0.21935773
13	0xbc19b470	-0.009381399
14	0xbd1caceb	-0.038250845
15	0xbd622da5	-0.05521931
16	0x3c25af82	0.010112645
17	0x3d96fa35	0.07371942
18	0x3d066296	0.032808863
19	0x3e68274f	0.22671245
20	0x3e720382	0.2363415
21	0xbd60d040	-0.054886103
22	0xbbe3d977	-0.006953414
23	0xbd44cf7b	-0.04804943
24	0x3d659d67	0.056058314
25	0xbc8f3901	-0.017483236
26	0x3d114937	0.035470214
27	0xbbbe1274	-0.0058005396
28	0xbcc8a355	-0.024491945
29	0x3c742a7f	0.01490271
30	0x3d02dccc	0.03194885
31	0x3d8561b5	0.06512777
32	0x3e6d65ad	0.23183317
33	0xbd9913c1	-0.07474471
34	0x3e424a2b	0.18973605
35	0x3dd7c380	0.105353355
36	0x3cf53c18	0.029935881
37	0x3dd83537	0.10557025
38	0xbd6d3c71	-0.05791897
39	0x3d2e824a	0.042604722
40	0x3e18afcf	0.14910816
41	0x3e2c276a	0.1681191
42	0x3e6b8bf4	0.23002607
43	0xbc7e33bc	-0.015515264
44	0x3e104543	0.14088921
45	0x3df0c416	0.117561504
46	0xbd842941	-0.06453181
47	0x3e107111	0.14105631
48	0x3d2284b4	0.039677337
49	0x3e269d2c	0.16270894
50	0x3e429d1c	0.19005245
51	0xbcd33ced	-0.025785888
52	0xbbc6f72c	-0.0060719457
53	0x3cb3fd07	0.021971239
54	0xbbc31e55	-0.0059545436
55	0xbccba2af	-0.024857847
56	0x3d453378	0.048144788
57	0x3dcdbc77	0.100457124
58	0xbc683f79	-0.014175289
59	0x3ddde325	0.1083434
60	0xbd22ab29	-0.039714012
61	0x3dc1d6c8	0.094647944
62	0x3ccf3268	0.02529259
63	0x3dcc4c91	0.099755414
64	0x3d021fee	0.03176873
65	0xbc6ce585	-0.014459019
66	0xba3486bb	-0.00068865315
67	0xbd4ae1b6	-0.04953166
68	0x3e2f627c	0.17127413
69	0xbc845a46	-0.016156327
70	0x3df6ebcc	0.120566934
71	0xbc8a45f7	-0.016879065
72	0x3e158d0d	0.14604588
73	0xbd7763f5	-0.06039806
74	0xbcab2f49	-0.02089657
75	0x3d674dea	0.05647079
76	0x3e12cded	0.14336367
77	0x3d537d9a	0.051633455
78	0x3e2c4690	0.16823792
79	0x3e4009eb	0.18753783
80	0xbd3adf0c	-0.04562287
81	0xbd8aa67e	-0.06770037
82	0x3d394df3	0.045240354
83	0xbd82460d	-0.063610174
84	0x3cca139d	0.024667555
85	0x3d562a69	0.05228654
86	0x3e11b240	0.14228153
87	0x3dd77616	0.1052057
88	0x3db0029b	0.08594247
89	0x3e0cf9ed	0.13767214
90	0xbd18244c	-0.03714399
91	0xbd86eeb0	-0.06588495
92	0x3bf19a17	0.0073731053
93	0x3e2cfcf0	0.16893363
94	0x3e21c687	0.15798388
95	0x3d65a43b	0.056064826
96	0x3e2bf29b	0.16791765
97	0x3df33def	0.11877047
98	0xbcc3149a	-0.023813535
99	0x3dce472b	0.10072168
100	0x3bd97ef0	0.0066374466
101	0x3e5119f2	0.20420054
102	0x3d64a110	0.055817664
103	0x3d16013d	0.036622275
104	0x3e44c668	0.19216311
105	0x3e478d45	0.19487484
106	0xbd31748a	-0.04332403
107	0x3e59dcd2	0.21275643
108	0x3d94a2dd	0.07257626
109	0xbcf18ddf	-0.029486595
110	0x3e527911	0.20553996
111	0x3d3e6462	0.04648245
112	0xbd258536	-0.040410243
113	0x3d4b13b5	0.04957934
114	0x3d0b63cc	0.03403072
115	0xbcc40a85	-0.023930797
116	0xbd7a0ddc	-0.061048374
117	0x3e4e04c8	0.20119011
118	0x3c9b7d25	0.018980572
119	0xbd3b3b00	-0.045710564
120	0xbb59695a	-0.0033174367
121	0x3d581ddc	0.05276285
122	0x3da7b729	0.08189232
123	0xbd257d0d	-0.04040246
124	0x3e2dce29	0.16973175
125	0xbd190768	-0.03736058
126	0x3d510c9d	0.05103742
127	0x3ccdace6	0.025106858

4.weight f4 [3, 128]
0	0xbc3b8137	-0.011444381
1	0xbdc263ef	-0.09491717
2	0xbe111b24	-0.1417051
3	0xbc8c3642	-0.017115716
4	0xbd7e6bf2	-0.062114663
5	0xbe2d5670	-0.16927505
6	0x3dc65988	0.096850455
7	0x3e5e7338	0.2172364
8	0xbd89ce55	-0.06728808
9	0x3e73dae5	0.2381397
10	0xbe7baf82	-0.2457867
11	0xbbd5b125	-0.0065213614
12	0xbe28534a	-0.16438022
13	0xbd19580d	-0.037437487
14	0x3c9f07c0	0.019412875
15	0x3e124a74	0.14286214
16	0x3d3aaacb	0.045573037
17	0xbe19b0e4	-0.15008885
18	0x3f4c0616	0.79696786
19	0xbe16a0a5	-0.14709719
20	0xbe30e5e8	-0.17275202
21	0xbe27bcfd	-0.16380687
22	0xbd4bb9e5	-0.04973783
23	0x3e040ec7	0.12896262
24	0xbdec972b	-0.115522705
25	0x3e84a61f	0.2590799
26	0x3d170ee0	0.03687942
27	0xbbab8e28	-0.005235452
28	0xbd6927da	-0.05692277
29	0xbd838b81	-0.06423093
30	0xbd95d50a	-0.073160246
31	0xbdceff2c	-0.10107264
32	0xbe2936b5	-0.16524775
33	0xbe156dc5	-0.14592655
34	0xbdb18128	-0.08667213
35	0xbbc3ef45	-0.005979451
36	0x3e792e0a	0.24333969
37	0xbe0fd740	-0.14046955
38	0x3c77834f	0.01510699
39	0xbd595354	-0.053057984
40	0xbdb45a92	-0.088063374
41	0xbe2e0df0	-0.16997504
42	0xbdc320d1	-0.095277436
43	0x3f587ae1	0.845625
44	0xbdd65677	-0.104657106
45	0x3d557d5e	0.052121513
46	0x3d824d6c	0.06362423
47	0xbe158c78	-0.14604366
48	0xbd1088be	-0.035286658
49	0xbe2de3d1	-0.16981436
50	0xbe181926	-0.14853343
51	0x3c9b59e6	0.018963765
52	0x3e738ab5	0.23783381
53	0x3d88dc0c	0.066825956
54	0x3e9b9c7b	0.30392823
55	0xbc86fdf2	-0.016478512
56	0x3d979681	0.07401753
57	0xbe20f454	-0.15718204
58	0x3c4f501b	0.012653376
59	0xbdabc93c	-0.08387992
60	0x3e822fd9	0.2542713
61	0x3d92c3da	0.07166262
62	0x3ed30724	0.41216385
63	0xbe06aea6	-0.1315256
64	0x3d5f5fb4	0.05453463
65	0x3f4d2941	0.80141073
66	0xbdc3053d	-0.095224835
67	0x3e8057e0	0.25067043
68	0xbdc2c182	-0.09509565
69	0xbbdc48c8	-0.0067225434
70	0xbd593efd	-0.053038586
71	0xbd19660a	-0.037450828
72	0xbdf7db23	-0.12102344
73	0x3c37e3d3	0.011223751
74	0xbd950c09	-0.07277686
75	0xbe1da8f5	-0.15396483
76	0xbe36212d	-0.17786093
77	0xbd4108ce	-0.047127537
78	0xbe180d87	-0.1484891
79	0xbde8e6f5	-0.113721766
80	0x3e8ea57f	0.27860638
81	0x3ee2aa94	0.44270766
82	0xbcf5218b	-0.029923221
83	0x3d16e2f5	0.036837537
84	0x3cddf88e	0.02709606
85	0xbe20ffd7	-0.15722595
86	0xbcea826c	-0.028626643
87	0xbe2137bd	-0.15743919
88	0xbeab41b7	-0.33448574
89	0xbdfda137	-0.12384265
90	0x3ec65018	0.38732982
91	0x3d315d3b	0.043301802
92	0x3b87d7b5	0.0041455873
93	0xbda2fc0c	-0.079582304
94	0xbe36b539	-0.17842568
95	0xbe550c5a	-0.20805493
96	0xbdb65b6b	-0.08904155
97	0xbe03d333	-0.12873535
98	0xbdcdde40	-0.100521564
99	0xbe2360f4	-0.15954953
100	0x3d9287ed	0.07154832
101	0xbe269068	-0.16266024
102	0x3d0e58e8	0.034752756
103	0xbd809a49	-0.062794276
104	0xbe144c29	-0.14482178
105	0xbd38eb41	-0.04514623
106	0xbde2797c	-0.110583276
107	0xbe116758	-0.14199579
108	0xbddff0dd	-0.10934613
109	0x3d720821	0.059089784
110	0xbe04a259	-0.12952556
111	0xbdce5976	-0.10075657
112	0x3f89bf57	1.0761517
113	0x3cfcb73b	0.03084909
114	0xbd3eb320	-0.046557546
115	0x3ef402ef	0.47658488
116	0x3cc0249f	0.023454962
117	0xbda53b62	-0.08067967
118	0xbd1326a1	-0.03592551
119	0xbe5f3133	-0.21796112
120	0xbe5dc3d1	-0.2165673
121	0x3e467271	0.19379593
122	0xbd875cc4	-0.066094905
123	0x3d560dd1	0.05225927
124	0xbdf90bf1	-0.12160481
125	0x3ef43a2b	0.4770063
126	0x3d7352e8	0.059405237
127	0x3f408e9e	0.75217617
128	0xbb9fb87b	-0.0048742867
129	0xbe069c34	-0.13145524
130	0xbdc260c7	-0.09491115
131	0x3d3670d9	0.044541214
132	0xbe1ab2cb	-0.15107267
133	0xbe07b37b	-0.1325206
134	0x3da369c0	0.079791546
135	0xbdf438d4	-0.119249016
136	0xbe207389	-0.15669073
137	0x3d37e07b	0.044891816
138	0xbd55380c	-0.052055404
139	0xbd8f6433	-0.07001533
140	0xbdc03901	-0.09385873
141	0xbd73ec5d	-0.059551585
142	0x3d05a31a	0.03262625
143	0x3dc3e5e0	0.095653296
144	0x3cd5252d	0.026018703
145	0xbc03f728	-0.008054532
146	0x3f05f5be	0.523281
147	0xbe082d53	-0.1329854
148	0xbdb180f5	-0.08667175
149	0x3d87fee8	0.066404164
150	0xbd030cef	-0.031994756
151	0x3decb7d7	0.11558502
152	0xbdcc370c	-0.09971437
153	0x3f58dfea	0.84716666
154	0x3ce31794	0.027721204
155	0x3ce5b864	0.028042026
156	0xbd1eb86b	-0.038750093
157	0xbdda5d5c	-0.10662338
158	0xbc13026f	-0.008972748
159	0xbdaaeb34	-0.08345643
160	0xbe20cbc4	-0.1570273
161	0x3df8e938	0.12153858
162	0xbe127aad	-0.1430461
163	0xbd511f1e	-0.051055066
164	0x3d91c892	0.07118334
165	0xbe209ec7	-0.15685569
166	0x3d8d9163	0.06912496
167	0xbdb4fa2f	-0.08836781
168	0xbdce2d08	-0.10067183
169	0xbcf40741	-0.029788615
170	0xbe2a060e	-0.16603872
171	0x3d981ffd	0.07427976
172	0xbe26a80c	-0.16275042
173	0xbe0bb588	-0.13643467
174	0x3d217d22	0.039425977
175	0xbe002ec5	-0.12517841
176	0xbe0b46dc	-0.1360125
177	0xbe1370c1	-0.14398481
178	0xbd718ab1	-0.058970157
179	0x3ceeadf5	0.029135684
180	0x3f569c90	0.83832645
181	0x3d22b138	0.03971979
182	0xbc207f03	-0.009795907
183	0xbd6cb4bc	-0.05778955
184	0x3c730031	0.014831589
185	0xbd2a501b	-0.0415803
186	0xbbed0378	-0.0072330795
187	0xbdd56bb0	-0.104209304
188	0x3f59f357	0.8513693
189	0xbda2db1c	-0.07951948
190	0x3f3a0693	0.7266628
191	0xbd1636e0	-0.036673427
192	0x3d66bb9f	0.056331273
193	0x3ec07748	0.37591004
194	0xbbf1ab0a	-0.007375126
195	0x3d7324a6	0.059361123
196	0xbe2bd960	-0.1678214
197	0xbcfa81ea	-0.030579526
198	0xbe05bdc4	-0.13060671
199	0xbccb547e	-0.024820562
200	0xbe11180e	-0.14169332
201	0xbccbfbb1	-0.02490029
202	0xbdef9bdb	-0.11699649
203	0xbe1af61f	-0.1513295
204	0xbda37634	-0.0798153
205	0x3c925286	0.017861616
206	0xbe10522a	-0.14093843
207	0xbe20f836	-0.15719685
208	0x3f4c3892	0.7977382
209	0x3e20f667	0.15718995
210	0xbded439a	-0.115851596
211	0x3d83cc61	0.064354666
212	0xbc478d0d	-0.012179625
213	0xbd395a38	-0.045252055
214	0xbe085a40	-0.13315678
215	0xbe17b9f7	-0.14817034
216	0x3d2e0787	0.042487647
217	0xbdd1c9eb	-0.10243591
218	0x3bd16394	0.0063900445
219	0xbd83df75	-0.064391054
220	0x3c78d89b	0.0151883615
221	0xbdef947a	-0.116982415
222	0xbe116d74	-0.1420191
223	0xbca59db0	-0.020216793
224	0xbe169cce	-0.14708254
225	0xbdc273e3	-0.0949476
226	0xbd88adb6	-0.06673758
227	0xbd611458	-0.054951042
228	0x3d84885f	0.06471323
229	0xbde9d271	-0.11417092
230	0x3d044e4d	0.032301236
231	0xbdfcc2e0	-0.12341857
232	0xbdacf273	-0.08444681
233	0xbe195e13	-0.14977293
234	0xbd4d2a24	-0.050089017
235	0xbdacb2f7	-0.08432572
236	0xbcf43485	-0.0298102
237	0xbbc23178	-0.0059263073
238	0xbd86d0d5	-0.065828
239	0xbe1ed744	-0.15511805
240	0x3f555a8c	0.8334129
241	0x3d65efe6	0.056136988
242	0x3d0bbaac	0.03411357
243	0x3f3ca1fb	0.7368466
244	0xbd93c608	-0.07215506
245	0xbdeffe06	-0.11718373
246	0xbd7e35c7	-0.062063005
247	0xbe452f5e	-0.1925635
248	0x3d0c0e24	0.034193173
249	0xbbe287d9	-0.006913167
250	0xbc92952f	-0.017893402
251	0xbd3b12f5	-0.045672376
252	0xbe04f555	-0.12984212
253	0x3e19a473	0.15004139
254	0x3cf0e41c	0.029405646
255	0x3ed469ad	0.41486874

4.bias f4 [3]
0	0xbe203468	-0.15644991
1	0xbdf1030d	-0.1176816
2	0xbe2c39a0	-0.16818857
