Code_Webots/Deep_Q_learning_results/best_weights_using_gs_fc_128_100ms.pt (torch, 71871 bytes, 6 tensors)

0.weight f4 [128, 3]
0	0x3e91ef62	0.28502947
1	0x3edfb919	0.43695906
2	0xbc34da23	-0.011038336
3	0x3ed7b459	0.42129782
4	0xbda2550a	-0.07926376
5	0x3e014a1b	0.12625925
6	0xbe5fbf0f	-0.21850227
7	0x3e49ee72	0.19719866
8	0x3f03df01	0.5151215
9	0xbeea6761	-0.45781997
10	0x3f08e35e	0.53471935
11	0x3d3f7bf4	0.04674907
12	0x3eada546	0.33915156
13	0x3de7919a	0.11307068
14	0x3e669109	0.22516264
15	0xbe36c73d	-0.17849441
16	0x3ee424a1	0.44559196
17	0x3dd477da	0.10374422
18	0xbebd890b	-0.37018618
19	0x3e285350	0.16438031
20	0xbe49f3bb	-0.19721882
21	0xbdce02de	-0.100591406
22	0xbe1547fe	-0.14578244
23	0x3ea3ab98	0.31966853
24	0xbec7be00	-0.39012146
25	0xbe885c50	-0.2663293
26	0xbe2548a8	-0.16140997
27	0xbe9e1dea	-0.30882198
28	0xbde26437	-0.11054271
29	0xbed8ebe0	-0.42367458
30	0x3eef8f7b	0.46789154
31	0xbed28d9b	-0.4112366
32	0x3ec2a8c8	0.38019395
33	0x3d40fb2d	0.04711454
34	0xbe137272	-0.14399126
35	0x3ea9fac2	0.33199126
36	0xbc7bb40d	-0.015362752
37	0x3f0b5d5e	0.5443934
38	0xbc16647d	-0.009179232
39	0xbe4104f7	-0.1884955
40	0x3e255c8a	0.16148582
41	0xbe0e1d3b	-0.13878338
42	0x3e70e8b9	0.23526277
43	0x3ed2c40a	0.4116519
44	0x3eaa37e2	0.3324576
45	0xbe4b8e1a	-0.19878426
46	0x3eb94251	0.36183408
47	0x3a864069	0.0010242584
48	0x3e38c4d5	0.18043835
49	0xbea621f9	-0.32447794
50	0xbee15fb9	-0.44018343
51	0xbe61f14f	-0.22064708
52	0xbec4a8ef	-0.38410136
53	0x3edcb096	0.43103474
54	0x3e3152cb	0.1731674
55	0x3e36ad5e	0.17839572
56	0x3e3d617a	0.18494216
57	0x3c7244e3	0.014786932
58	0x3eecb33b	0.46230492
59	0xbedfec90	-0.4373517
60	0x3d2a44fd	0.0415697
61	0xbea80242	-0.32814223
62	0x3dfa6e6e	0.12228094
63	0xbe3b97e4	-0.1831966
64	0x3e26eb2e	0.16300651
65	0xbde307cc	-0.110854715
66	0x3ee60e9e	0.44933027
67	0xbeab94e5	-0.33512035
68	0xbeafab6f	-0.3431048
69	0xbe97f7b9	-0.29681185
70	0x3f16bbe4	0.5888045
71	0x3d080cd7	0.03321537
72	0x3f0071ca	0.5017363
73	0xbeeadcc5	-0.4587156
74	0xbefac428	-0.4897778
75	0xbedcea1c	-0.4314736
76	0xbeaae173	-0.3337513
77	0x3e479470	0.19490218
78	0x3e3b8e92	0.18316105
79	0x3ef45a48	0.4772513
80	0xbe90b720	-0.28264713
81	0xbeb6d74b	-0.3571113
82	0x3ec0aaee	0.3763041
83	0xbe90d13a	-0.28284627
84	0x3ea3b6d4	0.31975424
85	0xbdb39834	-0.08769265
86	0x3e847bda	0.2587574
87	0xbed56dff	-0.41685483
88	0xbe5e828a	-0.21729484
89	0x3dba16c8	0.090863764
90	0x3dd1d7a2	0.10246207
91	0xbcb61a3a	-0.022229303
92	0x3e59d8f1	0.21274163
93	0x3ea0bf32	0.3139587
94	0xbebf7a99	-0.37398222
95	0xbe88beff	-0.26708218
96	0x3ef04541	0.46927837
97	0xbe4f7061	-0.20257713
98	0xbe0fd0c1	-0.14044477
99	0xbef78a2b	-0.483476
100	0xbe81b78c	-0.25335348
101	0x3d065253	0.032793354
102	0xbc967941	-0.018368365
103	0xbed9e964	-0.42560875
104	0x3cf96bca	0.030446906
105	0xbeba1018	-0.36340404
106	0xbee71169	-0.4513047
107	0xbe960420	-0.29300022
108	0xbee8e30f	-0.45485732
109	0xbeb59cf5	-0.3547131
110	0x3f0aef27	0.5427117
111	0x3d94552d	0.072428085
112	0x3d957dee	0.0729941
113	0xbeca88ae	-0.39557403
114	0xbeb45751	-0.35222867
115	0xbe0ed0c3	-0.13946824
116	0x3d893ba9	0.067008324
117	0xbedfaa88	-0.43684793
118	0xbe889daf	-0.26682803
119	0xbea3e6c2	-0.32011992
120	0x3c365e09	0.011130818
121	0xbe305482	-0.17219737
122	0xbda5d276	-0.08096783
123	0xbeb1b131	-0.347055
124	0xbeb3b323	-0.35097608
125	0xbea89f87	-0.3293421
126	0xbe1672f7	-0.14692293
127	0xbee232ee	-0.4417948
128	0x3ec9f730	0.39446402
129	0xbe2119aa	-0.15732446
130	0x3f109514	0.56477475
131	0x3e2d921d	0.16950269
132	0xbf0b76a6	-0.5447792
133	0x3edd4a67	0.43220827
134	0xbe16b871	-0.14718796
135	0xbe87ddcc	-0.26536405
136	0xbef4cbbe	-0.47811693
137	0xbeddb2e7	-0.43300554
138	0x3e247543	0.16060357
139	0xbdb861b5	-0.09003011
140	0x3e2458b7	0.16049467
141	0xbedb3a86	-0.42818087
142	0x3ed80eaa	0.42198688
143	0xbed259f3	-0.4108425
144	0xbdb017ea	-0.08598311
145	0x3b8c1890	0.004275389
146	0x3ea2b058	0.31775165
147	0x3ea1745a	0.31534082
148	0x3efa552c	0.48893106
149	0xbeabbf55	-0.33544412
150	0x3e026a8b	0.12735955
151	0xbe635763	-0.22201304
152	0xbd6a68ab	-0.057228725
153	0xbe8b6d36	-0.2723176
154	0x3eb2bd0b	0.34909853
155	0xbedc13ae	-0.42983764
156	0x3e91a5ca	0.284468
157	0x3e3f6a05	0.18692787
158	0x3e310314	0.1728633
159	0xbeb4df8f	-0.35326812
160	0x3f0e2c55	0.55536395
161	0x3ddc8152	0.107668534
162	0x3d21f8b1	0.03954381
163	0xbec79d4a	-0.3898719
164	0x3e342172	0.17590883
165	0xbc94dbcf	-0.01817122
166	0xbe4fe83a	-0.20303431
167	0x3ea16ab9	0.31526735
168	0x3da872ff	0.08225059
169	0xbe9b1ed6	-0.30296963
170	0xbe8915fd	-0.26774588
171	0xbb255f61	-0.0025233852
172	0x3e299d4f	0.16563915
173	0xbd973ca1	-0.07384611
174	0xbe94e17b	-0.29078278
175	0xbde61745	-0.11234907
176	0xbeefe977	-0.46857807
177	0x3e360931	0.17776944
178	0x3eb03af3	0.34419975
179	0xbee3bc97	-0.4447982
180	0x3e10c08b	0.1413595
181	0x3e866351	0.26247647
182	0x3da28f24	0.07937458
183	0xbe4bf7af	-0.19918703
184	0x3e29a53f	0.16566943
185	0x3eb2cd55	0.3492228
186	0x3e8c9c94	0.2746321
187	0xbe34eca4	-0.17668396
188	0xbe37d5f5	-0.17952712
189	0x3d39db59	0.0453752
190	0xbdc99946	-0.09843688
191	0xbe19ac03	-0.15007024
192	0x3ec9159b	0.39274296
193	0x3ec919ed	0.39277592
194	0xbd785008	-0.0606232
195	0xbdf39585	-0.11893753
196	0x3bfdfa23	0.007750766
197	0xbd021876	-0.03176161
198	0x3df236cc	0.11826858
199	0x3db607bf	0.08888196
200	0xbee0fdbb	-0.4394358
201	0xbe591f4f	-0.2120335
202	0x3f07ab7a	0.5299603
203	0x3e301cc1	0.17198469
204	0xbcd8bc63	-0.026457017
205	0xbea43a94	-0.32075942
206	0xbea6a3e9	-0.3254693
207	0xbf0aa758	-0.54161596
208	0xbe0ecfad	-0.1394641
209	0x3e35e356	0.17762503
210	0x3ec90dfd	0.39268485
211	0x3d772f76	0.060347997
212	0xbeb916ac	-0.3615011
213	0xbe9b8f5b	-0.3038281
214	0xbd695ab1	-0.056971256
215	0x3ee70856	0.45123547
216	0x3e1c8183	0.1528378
217	0xbe0b31a6	-0.13593158
218	0x3e1ee26a	0.15516058
219	0xbe5e442b	-0.21705692
220	0xbe6b4b4d	-0.22977944
221	0x3e7d0d9d	0.24712224
222	0xbe58b5d8	-0.21163118
223	0xbe290316	-0.16505083
224	0xbf022105	-0.50831634
225	0x3eb64b5b	0.35604367
226	0x3ece4ffd	0.402954
227	0x3e468e38	0.1939019
228	0xbeca23de	-0.3948049
229	0xbef1c28d	-0.47218743
230	0xbef91176	-0.48646134
231	0x3ed3e0cf	0.41382453
232	0x3ea1d36f	0.31606624
233	0x3ebb758b	0.36613116
234	0x3e535d76	0.20641121
235	0x3de65b8f	0.11247932
236	0x3dba10e5	0.090852536
237	0xbecf1ac9	-0.40450123
238	0xbee940a9	-0.45557144
239	0xbefe6115	-0.49683443
240	0x3e22d4ef	0.1590154
241	0xbe675fcb	-0.22595136
242	0xbda4008a	-0.08007915
243	0xbed0ef9f	-0.40807816
244	0xbc60b688	-0.013715394
245	0xbece11da	-0.40247995
246	0xbeaa998b	-0.3332027
247	0x3e8c5395	0.27407518
248	0xbea7427f	-0.3266792
249	0x3eaf181c	0.34198081
250	0xbe5ab030	-0.21356273
251	0xbeb6a512	-0.35672814
252	0xbdf81a0e	-0.121143445
253	0xbe68d4e1	-0.22737457
254	0xbe247968	-0.16061938
255	0xbec9d751	-0.39422086

0.bias f4 [128]
0	0xbdcc9be2	-0.0999067
1	0x3e9d942c	0.3077711
2	0xbef1441c	-0.47122276
3	0xbc56ce4a	-0.013110707
4	0x3e04f926	0.12985668
5	0xbd83c35d	-0.06433747
6	0xbe1c0290	-0.15235353
7	0xbe8bd7d5	-0.27313104
8	0x3e9fcd81	0.31211475
9	0x3e376179	0.17908277
10	0x3daa6a46	0.08321051
11	0xbeab49ff	-0.33454892
12	0xbecce1b0	-0.40015936
13	0xbc974ea0	-0.018470109
14	0x3d982fe0	0.074310064
15	0xbe850c42	-0.25985914
16	0xbe96e552	-0.29471833
17	0x3ea9eca8	0.33188367
18	0xbc8b0fa6	-0.016975235
19	0xbba227f2	-0.0049486095
20	0xbe631d83	-0.22179227
21	0xbef63655	-0.48088327
22	0xbf118eec	-0.56858706
23	0xbe3a5d8f	-0.18199752
24	0xbe911106	-0.283333
25	0x3d99b73e	0.07505654
26	0xbe014b60	-0.1262641
27	0xbe36c46e	-0.1784837
28	0x3ea4c46e	0.32181114
29	0x3d7c682d	0.061622787
30	0x3e82497f	0.25446698
31	0xbea497e8	-0.32147145
32	0xbe85da05	-0.26142898
33	0x3ccfdffd	0.02537536
34	0xbeb9b336	-0.3626954
35	0xbeb20bfa	-0.34774762
36	0xbde0d86a	-0.10978778
37	0xbeab87d4	-0.33502066
38	0xbee4b073	-0.4466587
39	0x3e9fe674	0.3123051
40	0x3e84c0a2	0.25928217
41	0x3c1a37ab	0.009412686
42	0xbe39bf1e	-0.18139312
43	0xbede266d	-0.43388692
44	0xbe1c882b	-0.15286319
45	0x3c8ef755	0.017451921
46	0x3e3966e1	0.18105651
47	0xbde1deb6	-0.11028807
48	0xbe4777b8	-0.19479263
49	0x3ea8b4fc	0.3295058
50	0xbedc411d	-0.43018427
51	0x3ea27dd3	0.3173662
52	0xbe535abc	-0.20640081
53	0xbc52cc11	-0.012866036
54	0xbe667701	-0.22506334
55	0xbb0e8392	-0.0021745902
56	0xbe61344f	-0.2199261
57	0x3e89621b	0.2683266
58	0xbaf4901b	-0.001865867
59	0x3ea1bedd	0.3159093
60	0x3e96c3eb	0.2944635
61	0xbe6a904d	-0.22906609
62	0xbea988a6	-0.33112067
63	0x3ea7c9a0	0.32771015
64	0x3ea395d0	0.31950235
65	0xbecff197	-0.40614006
66	0xbdbc88d4	-0.092057854
67	0xbf014ad2	-0.5050479
68	0xbedef029	-0.43542603
69	0x3cc3c49c	0.023897462
70	0x3da257ff	0.0792694
71	0xbc9962f1	-0.018723937
72	0xbe5cf53b	-0.21577923
73	0x3e9cfca5	0.30661502
74	0x3cd98ce8	0.026556447
75	0xbea0c136	-0.31397408
76	0xbdb92831	-0.09040869
77	0xbc735108	-0.014850862
78	0x3d018ebc	0.031630263
79	0xbec09143	-0.37610826
80	0x3d84a861	0.06477428
81	0xbe901d3f	-0.28147313
82	0xbedeff0b	-0.43553957
83	0xbe9e091f	-0.30866334
84	0x3e8b9e50	0.2726922
85	0x3ecef94a	0.40424567
86	0x3ebc94b7	0.3683221
87	0x3e359c56	0.17735419
88	0x3e99c517	0.3003318
89	0xbd9beb03	-0.07613184
90	0xbef2906a	-0.47375804
91	0x3deb4999	0.11488647
92	0xbec0deda	-0.37670022
93	0xbe946d27	-0.28989527
94	0xbe549b19	-0.2076229
95	0xbbc73320	-0.0060790926
96	0x3e0729d9	0.13199557
97	0xbe85493d	-0.2603244
98	0xbec669c0	-0.38752556
99	0x3b8ed93f	0.004359394
100	0xbea09403	-0.31362924
101	0xbed7b380	-0.42129135
102	0x3e7a4f63	0.24444346
103	0xbd17438d	-0.036929656
104	0x3ebdbfd1	0.37060407
105	0x3ec23450	0.37930536
106	0x3da7fd46	0.08202605
107	0x3e04d7e6	0.12972984
108	0x3c94f1e5	0.01818175
109	0xbcbede66	-0.023299407
110	0xbda90b3e	-0.082540974
111	0xbd3709e0	-0.044687152
112	0x3def44ea	0.11683066
113	0x3e79d850	0.24398923
114	0xbe3f338e	-0.1867201
115	0xbe7b276e	-0.2452676
116	0xbe508e62	-0.20366815
117	0xbe83b580	-0.2572441
118	0x3da10d04	0.07863811
119	0x3e6152c7	0.22004233
120	0x3e7d1424	0.24714714
121	0x3e36dcf7	0.17857729
122	0xbee1f687	-0.44133398
123	0xbe980ced	-0.29697362
124	0xbe2a3b26	-0.16624126
125	0xbd8875af	-0.06663071
126	0xbd678079	-0.056519005
127	0xbf00e200	-0.5034485

2.weight f4 [128, 128]
0	0x3ccf9fe6	0.0253448
1	0xbd7e17d4	-0.062034443
2	0xbd531703	-0.051535618
3	0xbd8aa5fd	-0.06769941
4	0x3d916343	0.07099011
5	0xbd9dde1f	-0.07708382
6	0x3d7b2f55	0.061324436
7	0xbb336cc2	-0.0027378057
8	0xbc1b24f0	-0.009469256
9	0x3d50a278	0.050936192
10	0xbbf63728	-0.0075138994
11	0x3d51336a	0.051074423
12	0x3d70ef91	0.05882222
13	0xbd90d32a	-0.07071526
14	0x3d0033d8	0.031299442
15	0x3c7b70eb	0.015346746
16	0x3c8f58e0	0.017498434
17	0x3c42cc6f	0.011889561
18	0x3cb67f17	0.022277398
19	0xbd2082bc	-0.039187178
20	0xbc2ab2c4	-0.010418598
21	0x3d9e6b19	0.07735271
22	0x3d601d55	0.054715473
23	0xbb488e9a	-0.0030602575
24	0xbd9cd020	-0.07656884
25	0x3b69d194	0.0035677897
26	0xbd63361d	-0.05547153
27	0x3d87af4d	0.06625233
28	0xbd4a7b8e	-0.049434237
29	0xbbc0a9ae	-0.0058796024
30	0xbc942170	-0.01808235
31	0x3c6d54e8	0.014485575
32	0x3d9ce50d	0.076608755
33	0x3bfd29e3	0.0077259406
34	0x3d412f2f	0.04716414
35	0x3d81682f	0.063186996
36	0x3d86ba0d	0.06578455
37	0xbce66d09	-0.028128164
38	0xbc954243	-0.018220073
39	0x3d20ccbc	0.03925775
40	0xbcb60d9c	-0.022223286
41	0x3d1c277f	0.038123604
42	0xbc91d7db	-0.017803123
43	0xbd6249ac	-0.05524604
44	0x3d07d4a2	0.033161767
45	0x3c4c8292	0.012482302
46	0x3d14c6d4	0.03632243
47	0x3da5b690	0.08091462
48	0x3d63cefe	0.055617325
49	0x3d9e09fe	0.077167496
50	0x3b8eb7ea	0.0043554204
51	0xbd8f608d	-0.070008375
52	0xbd69ea48	-0.057108194
53	0xbd4f2e17	-0.050581064
54	0xbd930eaa	-0.07180531
55	0xbd273540	-0.040822268
56	0xbd99871e	-0.07496475
57	0xbd99dd5f	-0.07512926
58	0xbd475de8	-0.04867354
59	0xbda47180	-0.08029461
60	0xbd4cb151	-0.04997379
61	0x3cfe0188	0.03100659
62	0x3d8b155c	0.06791183
63	0xbcc67ba7	-0.024228884
64	0xbcc20e62	-0.023688499
65	0x3d321d9e	0.043485276
66	0xbd249811	-0.040184084
67	0xbd1da86c	-0.038490698
68	0x3d4d79c0	0.050164938
69	0xbd91626e	-0.07098852
70	0x3c232d23	0.009959492
71	0x3d93688d	0.07197676
72	0x3c64e62c	0.013970893
73	0x3cb56f85	0.022147903
74	0xbd4244ea	-0.047429003
75	0xba9357b8	-0.0011241352
76	0x3b92cf96	0.0044803126
77	0x3ca3c378	0.019990668
78	0x3d019084	0.03163196
79	0x3d90f46d	0.070778705
80	0xbd7e3d3c	-0.062070116
81	0x3b200678	0.0024417918
82	0xbd26ac5d	-0.040691722
83	0xbd84146d	-0.064492084
84	0xbbd5c05e	-0.006523176
85	0xbd92e40d	-0.071724035
86	0x3d68b987	0.056817558
87	0x3c1a81d0	0.009430364
88	0xbd33c9ca	-0.043893613
89	0x3d2e5085	0.04255726
90	0xbd9dc88e	-0.077042684
91	0xbd00ee9f	-0.031477567
92	0xbc81f5ae	-0.01586422
93	0xbd8da40d	-0.06916056
94	0xbd5426f3	-0.051794957
95	0xbc59b833	-0.013288545
96	0x3d7cb048	0.061691552
97	0x3da11849	0.0786596
98	0x3d54474f	0.051825818
99	0xbd4738da	-0.048638202
100	0xbd5a2567	-0.053258326
101	0x3d91a2eb	0.07111152
102	0x3cebec05	0.028799066
103	0x3b0db564	0.002162301
104	0x3c349494	0.011021752
105	0xbd86234e	-0.065497026
106	0xbcdebaf2	-0.027188752
107	0x3da09750	0.078413606
108	0xbca48f07	-0.020087732
109	0xbb85f6a2	-0.004088239
110	0xbd8a7a24	-0.06761578
111	0xbd3a9f42	-0.045562036
112	0xbad9e4e7	-0.0016624004
113	0xbd4f2cda	-0.050579883
114	0xbc257ab2	-0.010100054
115	0x3d07cd9d	0.033155072
116	0xbda32c41	-0.07967425
117	0x3cc62e11	0.024191888
118	0xbd5c80b7	-0.05383369
119	0xbd22d41b	-0.03975306
120	0x3cffc8df	0.031223712
121	0x3d84bd9b	0.06481477
122	0xbcb6590f	-0.022259263
123	0xbd08faba	-0.033442236
124	0xbd96d715	-0.073652424
125	0xbd2bfd84	-0.04198982
126	0xbd922244	-0.07135442
127	0xbc98b0de	-0.018639024
128	0x3bd939d8	0.00662921
129	0xbdea54e8	-0.11441976
130	0x3d5531ed	0.052049566
131	0x3d98b2aa	0.074559525
132	0xbdf413cc	-0.119178385
133	0xbcace4ac	-0.021105133
134	0x3d6b4c2d	0.057445694
135	0xbe24ae55	-0.16082127
136	0xbc46c467	-0.012131787
137	0xbc66118b	-0.0140422685
138	0x3cbba651	0.022906454
139	0xbd3148f7	-0.043282475
140	0x3de07ece	0.10961686
141	0x3d3aa8c1	0.045571093
142	0x3d1e42c1	0.03863788
143	0x3e01264a	0.12612262
144	0xbd0d9955	-0.034570057
145	0xbdc314e6	-0.095254704
146	0xbc74fdc2	-0.014953079
147	0x3dd1cf4e	0.10244618
148	0xbd7eaff7	-0.062179532
149	0x3c97725c	0.018487148
150	0xbe90c259	-0.28273275
151	0x3d91c741	0.07118083
152	0x3c2fc362	0.010727735
153	0xbce768ba	-0.02824818
154	0x3d1e986d	0.038719583
155	0x3d47c8f6	0.048775636
156	0xbcc5eee6	-0.024161767
157	0xbdaaf95e	-0.08348344
158	0xbdbe6c9d	-0.0929806
159	0xbe1c5093	-0.15265112
160	0x3d830a79	0.06398482
161	0x3cbd33f2	0.023096059
162	0xbd408029	-0.046997223
163	0x3d801e03	0.06255724
164	0xbd8a0038	-0.06738323
165	0xbccb0e47	-0.024787081
166	0xbe8184fe	-0.25296777
167	0xbbee4671	-0.007271581
168	0x3bdd0265	0.00674467
169	0xbdb867fe	-0.0900421
170	0xbe1f8dbf	-0.15581416
171	0x3db6ec79	0.08931822
172	0xbc0c9834	-0.00858121
173	0x3d3b333b	0.045703154
174	0xbea26613	-0.317185
175	0x3cc165ef	0.023608176
176	0xbe2fa648	-0.17153275
177	0xbc991e05	-0.018691072
178	0x3cddad41	0.027060153
179	0x3de173ba	0.11008401
180	0x3c6017c3	0.01367754
181	0x3dbd2a20	0.0923655
182	0xbb6e9232	-0.0036403057
183	0xbdec727b	-0.11545273
184	0xbe0e91c2	-0.1392279
185	0x3da90eec	0.08254799
186	0xbba4acb1	-0.005025469
187	0x3dba4c84	0.090966254
188	0x3d3bcb24	0.045848027
189	0xbd1772bf	-0.036974665
190	0xbe59f12c	-0.21283406
191	0xbdb12345	-0.08649305
192	0x3cee4f41	0.029090526
193	0xbd874119	-0.06604213
194	0x3ca9cfa6	0.020728897
195	0x3da56064	0.08075026
196	0xbd90ee9a	-0.0707676
197	0x3b937e7f	0.0045011635
198	0xbcd97017	-0.026542706
199	0x3c2e2605	0.010629182
200	0x3d4976e4	0.04918565
201	0xbdee7fbe	-0.11645459
202	0x3d897838	0.06712383
203	0x3d8bd4c2	0.0682769
204	0xbdc87ec9	-0.09789807
205	0xbe044e4f	-0.12920497
206	0xbd685cdd	-0.056729186
207	0xbcc1563c	-0.02360069
208	0xbd29150a	-0.04127983
209	0x3da96378	0.08270925
210	0x3dc9592b	0.098314606
211	0x3d29bfdf	0.04144275
212	0xbd8af3da	-0.06784792
213	0x3d5b2da1	0.053510312
214	0x3bf63d24	0.0075146127
215	0xbd195a21	-0.03743947
216	0xbd85acf1	-0.065271266
217	0xbd956b94	-0.072959095
218	0x3d398698	0.045294374
219	0xbd6d85dc	-0.057988986
220	0xbdb54c99	-0.088525005
221	0x3df72043	0.120667
222	0xbdc12fc5	-0.094329394
223	0xbd6ed5f7	-0.05830952
224	0xbdb9dcb2	-0.090752974
225	0xbe55ca94	-0.20878059
226	0xbe0ebbb3	-0.13938789
227	0x3d04997b	0.032372933
228	0x3d47a167	0.04873791
229	0xbe1a3899	-0.15060653
230	0x3d4e5cd0	0.05038148
231	0x3dc36ff2	0.09542836
232	0xbd44f1d0	-0.048082173
233	0xbd142dbe	-0.036176436
234	0x3d9e164c	0.077190965
235	0xbd595146	-0.053056024
236	0xbdc852a6	-0.09781389
237	0x3cc3c428	0.023897246
238	0xbc120525	-0.008912359
239	0x3d952751	0.0728289
240	0xbb20f404	-0.0024559507
241	0xbc31957f	-0.010838865
242	0xbd4d6aba	-0.05015061
243	0x3c070169	0.008240082
244	0x3b92c22f	0.004478715
245	0x3d1e9d18	0.038724035
246	0xbd97a005	-0.07403568
247	0x3ca3d500	0.019999027
248	0xbd4a8532	-0.04944343
249	0xbc2da042	-0.0105972905
250	0xbe53152b	-0.20613544
251	0x3aeef493	0.0018230848
252	0xbc68e33e	-0.014214335
253	0x3c9222c1	0.017838838
254	0xbc9f1cd9	-0.019422935
255	0xbdd79266	-0.1052597

2.bias f4 [128]
0	0xbd8e1006	-0.0693665
1	0x3d749327	0.059710648
2	0xbd62959d	-0.055318464
3	0xbd0deed4	-0.034651592
4	0xbcc6e699	-0.02427988
5	0xbcb4fcdf	-0.022093235
6	0xbc86f8fe	-0.01647615
7	0x3d547972	0.05187363
8	0x3d9f1580	0.07767773
9	0xbdac20c7	-0.08404689
10	0xbd770868	-0.06031075
11	0xbda33f1a	-0.0797102
12	0x3d3ee14c	0.04660158
13	0xbc21dcfa	-0.009879345
14	0xbd36465d	-0.044500697
15	0xbd1ea074	-0.03872724
16	0x3c2e62d1	0.010643677
17	0x3ca1983a	0.019725908
18	0x3cfcdee5	0.030868003
19	0x3d4cf38b	0.05003695
20	0x3d7cb2e9	0.06169406
21	0xbd8ab643	-0.06773045
22	0xbb9d5415	-0.004801283
23	0xbd69191f	-0.056908723
24	0xbc57c46b	-0.013169388
25	0x3b9131b6	0.004430975
26	0x3cb703fb	0.022340765
27	0xbd446322	-0.047946103
28	0xbd833cf0	-0.06408107
29	0xbbe9a5f5	-0.0071303793
30	0x3d09e607	0.033666637
31	0x3bd7e548	0.0065886118
32	0x3d826775	0.06367389
33	0xbda95950	-0.08268988
34	0x3d0d43cd	0.034488488
35	0x3d488833	0.048958015
36	0x3d4d9def	0.050199445
37	0xbd10d4e6	-0.035359286
38	0xbd88a3d2	-0.06671871
39	0xbd0cd1ac	-0.034379646
40	0xbc3acae9	-0.011400917
41	0x3d425295	0.047442038
42	0x3d8c71e9	0.06857664
43	0x3b01d009	0.0019807837
44	0xbc59e0fd	-0.01329827
45	0x3d2680f5	0.040650327
46	0xbd9514ea	-0.0727938
47	0xbc8bf81e	-0.017086085
48	0x3b8eb53e	0.004355102
49	0xbb1a5bce	-0.0023553255
50	0x3d08529a	0.0332819
51	0xbccb4ccc	-0.024816893
52	0x3cc31f4f	0.02381864
53	0x3c94a524	0.018145151
54	0xbba78191	-0.005111881
55	0xbcd69499	-0.026193904
56	0x3d4fad66	0.050702475
57	0x3cfee9ff	0.031117437
58	0xbca9924e	-0.020699646
59	0xbd744487	-0.059635665
60	0xbc868083	-0.016418701
61	0x3d8d4aae	0.0689901
62	0x3cdec1bf	0.027191995
63	0xbccfd535	-0.02537022
64	0x3d0a228b	0.03372435
65	0xbc9b901c	-0.018989615
66	0xbc7dda58	-0.015493952
67	0xbd0db486	-0.03459599
68	0xbb6500da	-0.0034943135
69	0xbc8b6381	-0.01701522
70	0x3cebc034	0.028778173
71	0xbd867ac4	-0.065663844
72	0xbd05bc90	-0.03265053
73	0xbd82713c	-0.06369254
74	0xbdbd4837	-0.092422895
75	0xbdbcf473	-0.092263125
76	0xbca9a390	-0.020707875
77	0x3af73e1a	0.0018863112
78	0x3b9a17d2	0.0047025466
79	0x3c49c9ae	0.012316151
80	0xbd526b36	-0.051371776
81	0xbd320e14	-0.043470457
82	0xbd19fb9b	-0.037593465
83	0xbd90ac7d	-0.070641495
84	0xbca9d968	-0.02073355
85	0x3c3a506b	0.011371712
86	0xbb469274	-0.0030299695
87	0xbd78e197	-0.060762014
88	0x3d6aa3dd	0.05728518
89	0x3d5d7d1b	0.054074388
90	0xbd3b9c4c	-0.045803353
91	0xbd8df7eb	-0.06932052
92	0x3bb2f339	0.0054611233
93	0x3bb90a1e	0.005646958
94	0xb922a12e	-0.00015509568
95	0xbd5fe983	-0.054666054
96	0x3a2f61b6	0.000669028
97	0xbd12e0e3	-0.035859
98	0xbce167bf	-0.02751529
99	0x3cca862a	0.024722178
100	0x3b93f53a	0.0045153173
101	0x3d2fcf69	0.04292241
102	0x3d62dd00	0.055386543
103	0xbc3801b6	-0.011230877
104	0x3c93bc76	0.018034201
105	0x3d399b1c	0.04531394
106	0xbd70b229	-0.058763657
107	0x3d3bba56	0.045832
108	0x3d89de0d	0.06731806
109	0xbcfe6989	-0.031056182
110	0x3d6727fb	0.056434613
111	0xbcbbff15	-0.022948781
112	0xbd50e9c4	-0.051004186
113	0x3d956da7	0.07296305
114	0x3cb05d6b	0.02152892
115	0xbc1e2567	-0.009652472
116	0xbd83e364	-0.06439856
117	0x3cd7fd59	0.026365923
118	0x3ca3d35a	0.019998241
119	0xbd631ea7	-0.055449154
120	0x3c5b1538	0.013371758
121	0x3d42677a	0.047461964
122	0x3d3086fe	0.04309749
123	0xbd4147bc	-0.04718755
124	0xbaaeb6c3	-0.0013329614
125	0xbd302d2a	-0.04301182
126	0x3d5c1c8b	0.05373816
127	0x3caf4d44	0.021399148

4.weight f4 [3, 128]
0	0xbc459b69	-0.012060978
1	0x3d3c9977	0.046044793
2	0xbd48ff0a	-0.04907135
3	0xbc93b6a6	-0.01803143
4	0x3c9e4e84	0.019324549
5	0xbd3793f2	-0.044818826
6	0x3c17ef7a	0.009273404
7	0x3df62060	0.12017894
8	0xbc1bf4fa	-0.009518856
9	0x3d05a4e9	0.032627974
10	0x3d8ca6f3	0.068677805
11	0xbbe115f8	-0.006869074
12	0xbd8b6552	-0.06806435
13	0xbd21775a	-0.039420463
14	0x3ca6d209	0.020363824
15	0x3d491fa9	0.04910246
16	0x3d44b31e	0.048022382
17	0xbd3cfa24	-0.04613699
18	0x3e00b788	0.12570012
19	0xbd577dfb	-0.05261038
20	0xbd889084	-0.06668189
21	0xbd14b3fe	-0.036304466
22	0xbd5f3117	-0.054490175
23	0x3cbd9ac3	0.023145085
24	0xbc322126	-0.010872161
25	0x3e0315d0	0.1280129
26	0x3d69623f	0.05697846
27	0xbbd4b7d1	-0.006491639
28	0x3d43feca	0.047850408
29	0x3dbc90d9	0.09207315
30	0xbd9da668	-0.07697755
31	0xbd265369	-0.04060689
32	0xbda7108a	-0.081574515
33	0xbd4bcf7f	-0.04975843
34	0xbc15dc95	-0.009146829
35	0x3d9f8d27	0.077905945
36	0x3e682fae	0.22674438
37	0xbdae73bb	-0.085181676
38	0x3cc1958b	0.023630878
39	0x3d046e5b	0.032331806
40	0xbbd95917	-0.006632935
41	0xbc1be922	-0.009516032
42	0xbd2348ea	-0.03986446
43	0x3d5ae50f	0.053441104
44	0x3be14081	0.0068741445
45	0xbbd08649	-0.0063636643
46	0x3d8b461e	0.06800483
47	0xbd7ff986	-0.062493823
48	0x3e59dc4d	0.21275444
49	0xbde0fc63	-0.10985639
50	0xbd710204	-0.058839813
51	0x3ce0ef84	0.02745796
52	0x3cc2f758	0.023799583
53	0x3d8f42f2	0.06995191
54	0x3d874bdf	0.06606268
55	0xbc8e072d	-0.017337406
56	0x3d9f88d9	0.077897735
57	0xbd79b0f7	-0.060959782
58	0x3c068fe5	0.008213018
59	0x3c4b5cd6	0.0124122705
60	0x3d87997d	0.066210724
61	0x3e3b0b3b	0.18266003
62	0x3d0a3262	0.033739455
63	0xbdbac713	-0.09120002
64	0x3d72673a	0.059180476
65	0x3d5eb3e7	0.054370787
66	0xbba7b09d	-0.0051174895
67	0x3da0d5db	0.0785329
68	0xbd2022c6	-0.039095663
69	0xbbe802d5	-0.0070804157
70	0xbc9213fc	-0.017831795
71	0x3e386736	0.18008122
72	0xbd19675a	-0.03745208
73	0x3c41b0e7	0.011821962
74	0xbd046b4a	-0.03232888
75	0xbd372e71	-0.044722024
76	0xbd83ad9f	-0.064296
77	0x3cab2f83	0.020896679
78	0xbdc33629	-0.095318146
79	0xbb88c7b3	-0.0041741966
80	0x3d3ca53a	0.04605601
81	0x3e51e128	0.20496047
82	0x3d366338	0.044528216
83	0x3d1e6058	0.0386661
84	0x3d55e69e	0.052221887
85	0x3d08ba1c	0.033380613
86	0x3d7a68ed	0.06113522
87	0xbd625642	-0.055258043
88	0xbd7384cf	-0.059452828
89	0xbc6ce7e9	-0.014459589
90	0x3d9527e1	0.07282997
91	0x3d3abedf	0.045592185
92	0x3cb01c84	0.021497972
93	0x3cf2e740	0.029651284
94	0xbd940c47	-0.07228904
95	0xbdd45842	-0.10368396
96	0x3ab3709d	0.0013690178
97	0xbd698bab	-0.057017963
98	0x3e1b7e7d	0.1518497
99	0xbd7aa412	-0.061191626
100	0x3d997edd	0.074949004
101	0xbd8e1c1f	-0.069389574
102	0x3d0b7fe3	0.03405751
103	0x3d04b644	0.032400385
104	0xbd4c2bcd	-0.04984646
105	0x3d471c0e	0.04861074
106	0x3dca319a	0.09872742
107	0xbd42b71b	-0.047537904
108	0x3d8a04fd	0.06739233
109	0x3d7eeb6f	0.062236246
110	0xbd0ed5fa	-0.034872033
111	0xbd061e5b	-0.032743793
112	0x3d027148	0.031846315
113	0x3daef1e5	0.085422315
114	0xbd03dfbe	-0.0321958
115	0x3e10cba4	0.14140183
116	0x3cca4e66	0.024695586
117	0xbc9aa740	-0.01887858
118	0xbd1af7ff	-0.037834164
119	0x3cdc7d05	0.026915083
120	0x3da03250	0.07822096
121	0x3e1d0765	0.15334852
122	0x3d584634	0.052801326
123	0x3d469de9	0.04849044
124	0xbc8b17d1	-0.01697913
125	0x3d670b51	0.056407277
126	0x3d8027a5	0.062575616
127	0x3c45cd17	0.012072823
128	0xbba851fc	-0.0051367264
129	0xbddb6ec3	-0.107144855
130	0xbd92f932	-0.071764365
131	0x3d401f03	0.046904575
132	0xbd73b394	-0.05949743
133	0x3cfd195b	0.03089588
134	0x3d244a61	0.040109996
135	0xbc904c4f	-0.017614512
136	0xbdb9be6d	-0.09069524
137	0x3c11c40e	0.008896841
138	0x3dd24814	0.10267654
139	0xbd973591	-0.07383264
140	0x3c27c9d5	0.010240992
141	0xbd807df7	-0.06274026
142	0x3d339af1	0.043848936
143	0x3daf8f0f	0.08572208
144	0x3ce08000	0.027404785
145	0x3d8f6dc9	0.07003362
146	0x3d941ce9	0.07232077
147	0xbbc9c1e0	-0.006157145
148	0x3b106fee	0.0022039372
149	0x3cbb08ef	0.022831408
150	0xbd05b2b4	-0.032641128
151	0xbbd7f6c4	-0.006590696
152	0xbd54d4d4	-0.05196078
153	0x3e296a5f	0.16544484
154	0x3cd6421a	0.026154567
155	0xbcc69c3b	-0.024244418
156	0x3da66af2	0.08125867
157	0xbc51b8b8	-0.012800388
158	0xbc1ad3cd	-0.009449911
159	0x3ddc9fbd	0.10772655
160	0xbd898ec6	-0.06716685
161	0x3d8eacf7	0.06966584
162	0xbda08e14	-0.07839599
163	0x3db09bb7	0.0862345
164	0x3e32a5a4	0.17446
165	0xbda1a44b	-0.078926645
166	0x3d9421bf	0.07232999
167	0xbc258a79	-0.010103815
168	0x3b496f72	0.0030736593
169	0x3e1e65e7	0.1546856
170	0xbdde6afb	-0.10860249
171	0x3db8551c	0.09000608
172	0xbcb3ad5c	-0.02193325
173	0xbdfc5d3b	-0.1232247
174	0x3d1a6132	0.03769035
175	0xbd4a3995	-0.04937132
176	0x3d939b15	0.07207314
177	0xbdcca0f4	-0.09991637
178	0x3d55f9b9	0.052240107
179	0x3cfb1747	0.030650748
180	0x3ca6e081	0.020370724
181	0x3d30910a	0.04310707
182	0x3db7d1c3	0.08975556
183	0xbd7942d4	-0.060854748
184	0x3c7ff300	0.015621901
185	0x3d3b979d	0.045798887
186	0xbc04fd79	-0.008117073
187	0xbcad5464	-0.021158405
188	0x3dc99f99	0.09844894
189	0x3d47ca54	0.04877694
190	0x3d87b515	0.066263355
191	0x3d2f461b	0.042791467
192	0x3d72187f	0.059105393
193	0x3c872bac	0.016500317
194	0x3c8be220	0.017075598
195	0x3d933d24	0.07189396
196	0xbdb26e4c	-0.08712444
197	0xbd0420d5	-0.032257874
198	0xbe152018	-0.14563024
199	0x3e3a8d39	0.18217935
200	0xbd227344	-0.039660707
201	0xbcd6ed9b	-0.026236346
202	0xbda39087	-0.07986551
203	0xbcdd65f4	-0.027026154
204	0x3c4f88e2	0.012666913
205	0x3d926591	0.071482785
206	0xbd8e0543	-0.06934597
207	0xbd57a974	-0.052651837
208	0xbdb55660	-0.08854365
209	0x3dfdc8b4	0.12391797
210	0xbd845372	-0.064612284
211	0x3d8dcfe5	0.06924418
212	0x3d1d6c7f	0.038433548
213	0x3e004387	0.1252576
214	0xbd5467b7	-0.051856723
215	0xbdc3201f	-0.09527611
216	0x3d8107d1	0.06300319
217	0xbcc08a6c	-0.023503505
218	0xbd97f0c9	-0.07418973
219	0xbd8ae8b0	-0.06782663
220	0x3caa18f4	0.020763852
221	0xbcc71f92	-0.024307046
222	0xbd804da4	-0.06264809
223	0x3d30a4df	0.043125983
224	0xbd36e9f9	-0.044656727
225	0xbd46acf6	-0.048504792
226	0x3db7d15b	0.08975478
227	0x3c69e347	0.014275379
228	0x3d8cedfa	0.06881328
229	0xbce643da	-0.028108526
230	0x3d025fb5	0.031829555
231	0xbc311ae6	-0.010809636
232	0xbc02806a	-0.007965187
233	0xbc367a98	-0.011137627
234	0x3d21d2a4	0.039507523
235	0x3a1f33ae	0.00060730695
236	0x3da8d967	0.08244591
237	0xbbcc702b	-0.0062389574
238	0xbcd63964	-0.026150413
239	0xbdafb7eb	-0.085800014
240	0x3d72e4aa	0.059300102
241	0x3dce43cc	0.10071525
242	0x3d5aee6a	0.053450026
243	0x3d9b1952	0.07573189
244	0xbd9b9766	-0.07597236
245	0xbce01c04	-0.027357109
246	0xbd8616a4	-0.06547287
247	0xbd1bf457	-0.038074818
248	0x3e2c72b7	0.16840635
249	0x3b7a7422	0.0038216193
250	0x3df27caa	0.11840184
251	0xbda3a729	-0.07990868
252	0xbd83baa6	-0.06432085
253	0xbd3343c9	-0.043765817
254	0x3cfdb52a	0.030970175
255	0x3cca1799	0.024669455

4.bias f4 [3]
0	0xbd02aff5	-0.031906087
1	0x3cb62266	0.0222332
2	0xbcfc8374	-0.0308244
