Code_Webots/Deep_Q_learning_results/best_weights_using_cam_100ms.pt (torch, 395011 bytes, 10 tensors)

conv1.weight f4 [16, 3, 3, 3]
0	0x3e019902	0.12656024
1	0x3e2a3ba0	0.16624308
2	0xbc2d1c07	-0.010565764
3	0x3e1accdf	0.15117215
4	0xbce4fb69	-0.027951913
5	0x3d90b569	0.07065851
6	0xbdd98544	-0.106211215
7	0x3dee1b60	0.11626315
8	0x3e49dbd8	0.1971277
9	0xbe163f3d	-0.14672561
10	0x3e31457d	0.17311664
11	0x3d873375	0.066016115
12	0x3df4937c	0.11942193
13	0x3d16bd28	0.036801487
14	0x3df8c596	0.121470615
15	0xbd2ad12c	-0.041703388
16	0x3e19751f	0.14986084
17	0x3d7e35c2	0.062062986
18	0xbdc02ba6	-0.09383325
19	0x3d7a9cd0	0.061184704
20	0xbd5aec57	-0.053448047
21	0xbd08a0c9	-0.03335646
22	0xbd7d6be0	-0.061870456
23	0x3e1d208b	0.15344445
24	0xbe2052f8	-0.1565665
25	0xbd99ff32	-0.07519378
26	0xbc97ad5e	-0.018515285
27	0xbe115080	-0.14190865
28	0xbc807222	-0.015679423
29	0xbe5b101f	-0.21392868
30	0x3e0d0e00	0.13774872
31	0xbe3d7ff0	-0.18505836
32	0x3de75b91	0.11296762
33	0x3a64c7fa	0.00087273086
34	0xbdb532c2	-0.08847572
35	0x3daa2220	0.0830729
36	0xba9bd2a0	-0.0011888333
37	0x3def95b0	0.116984725
38	0xbc3923e2	-0.011300059
39	0xbdab0d93	-0.083521985
40	0x3cb0688b	0.021534225
41	0xbd9d0bb6	-0.07668249
42	0x3d396cdd	0.045269836
43	0x3e076c06	0.13224801
44	0x3d970135	0.07373277
45	0xbddadd3d	-0.10686729
46	0x3d9edffa	0.07757564
47	0x3b85aed9	0.0040796814
48	0x3d8ea985	0.06965927
49	0xbe0bbd5d	-0.13646455
50	0xbe534b08	-0.20634091
51	0xbdd84df7	-0.105617456
52	0xbe32dded	-0.1746747
53	0x3debe015	0.1151735
54	0x3d42a65c	0.047521934
55	0x3d91fcd8	0.07128304
56	0x3d5ea2dd	0.054354537
57	0xbc0b3a32	-0.008497762
58	0x3e0e07a4	0.13870102
59	0xbe09ada3	-0.13445143
60	0x3bcb2d83	0.006200494
61	0xbe057422	-0.13032582
62	0x3d51bf36	0.051207744
63	0xbd8bdb5c	-0.06828949
64	0x3d5328ce	0.051552586
65	0xbd2ba398	-0.041904062
66	0x3e162aa8	0.1466471
67	0xbde77779	-0.113020845
68	0xbde862e2	-0.113469854
69	0xbdea78be	-0.11448811
70	0x3e233452	0.15937927
71	0x3d644b24	0.055735722
72	0x3e2ef56e	0.17085811
73	0xbe1f6536	-0.15565953
74	0xbe3e3f1c	-0.18578762
75	0xbe18406f	-0.1486833
76	0xbe02e5c1	-0.12782957
77	0x3d8e64c1	0.06952811
78	0x3d768441	0.06018472
79	0x3e16730a	0.14692321
80	0xbdcc6296	-0.09979741
81	0xbde5a2a5	-0.112126626
82	0x3df4c364	0.1195133
83	0xbd1f30c2	-0.03886486
84	0x3df76633	0.1208004
85	0xbcf184a3	-0.029482191
86	0x3e06c66f	0.13161634
87	0xbe0b3bdf	-0.13597058
88	0xbda9411d	-0.082643725
89	0x3d927da5	0.07152871
90	0x3d41bfe4	0.04730214
91	0xbcefaa3b	-0.029255977
92	0x3e0de5e2	0.13857225
93	0x3e06d1e0	0.13165998
94	0xbdf9c2bd	-0.121953465
95	0xbd9922e4	-0.07477358
96	0x3e3053c4	0.17219454
97	0xbd5d45de	-0.05402171
98	0xbd52bfb4	-0.051452354
99	0xbe33faf1	-0.17576195
100	0xbdc64c65	-0.0968254
101	0x3d835cfd	0.064142205
102	0xbcc400be	-0.023926135
103	0xbe05e73e	-0.13076493
104	0x3c8910ba	0.016731609
105	0xbe021e29	-0.12706818
106	0xbe1e8f7c	-0.15484422
107	0xbdc2f20b	-0.09518822
108	0xbe243363	-0.16035227
109	0xbdeec711	-0.11659063
110	0x3e3b4a1b	0.18289988
111	0x3d0d8801	0.03455353
112	0x3d6708ec	0.056404993
113	0xbe2ec63a	-0.17067805
114	0xbdf60f78	-0.12014669
115	0xbd793ca3	-0.060848843
116	0x3cea7d20	0.028624117
117	0xbe251c16	-0.16123995
118	0xbda18c08	-0.07888037
119	0xbde08349	-0.10962541
120	0x3a05097b	0.000507496
121	0xbd8b873c	-0.06812903
122	0xbc4ff416	-0.012692472
123	0xbdfdac58	-0.123863876
124	0xbe007ede	-0.12548396
125	0xbddaa79e	-0.10676502
126	0xbd80240b	-0.06256875
127	0xbe1404cd	-0.14454956
128	0x3e1d10b1	0.15338399
129	0xbd14eb9e	-0.036357515
130	0x3e2147f4	0.15750104
131	0x3d699304	0.05702497
132	0xbe1e99db	-0.15488379
133	0x3e019b68	0.12656939
134	0xbd4e5b3e	-0.050379984
135	0xbdaa4d97	-0.0831558
136	0xbe2d8389	-0.16944708
137	0xbe4c90e5	-0.19977148
138	0x3d4eba1f	0.050470468
139	0xbd455999	-0.04818115
140	0x3d5dbfcf	0.054138
141	0xbe124922	-0.1428571
142	0x3e108c02	0.14115909
143	0xbe0a788c	-0.13522547
144	0xbd3d480e	-0.046211295
145	0x3ca1db61	0.019757928
146	0x3d9b652e	0.07587658
147	0x3e12b27f	0.14325903
148	0x3e1fd5a4	0.15608841
149	0xbe281935	-0.16415866
150	0x3d4e427c	0.050356373
151	0xbd9cf125	-0.07663182
152	0xbcc2daa8	-0.023785904
153	0xbe1d3629	-0.15352692
154	0x3e172ac3	0.14762406
155	0xbe1d28e7	-0.15347634
156	0x3db622d8	0.08893365
157	0x3d4cd679	0.050009225
158	0x3d1c64c0	0.03818202
159	0xbdcd8338	-0.100347936
160	0x3e26dc41	0.16294958
161	0x3d01dc98	0.031704515
162	0x3d3a8398	0.045535654
163	0xbdff3593	-0.1246139
164	0x3de47f4d	0.11157093
165	0xbd4e4686	-0.050360225
166	0xbdc4ab2c	-0.09602961
167	0x3e176a68	0.14786685
168	0x3cc9f8c3	0.024654752
169	0xbdfc84ac	-0.12329993
170	0xbdf99f0e	-0.121885404
171	0x3be545a4	0.006996827
172	0x3e062fab	0.13104121
173	0xbc9f5ef8	-0.019454464
174	0xbe020654	-0.12697726
175	0xbd9ad9ac	-0.07561049
176	0xbe16af4e	-0.14715311
177	0x3d4dbc29	0.05022827
178	0x3df9a634	0.12189904
179	0xbe4ab221	-0.19794513
180	0x3d4a6db0	0.049421012
181	0x3de43733	0.11143341
182	0x3d48bca7	0.049008038
183	0xbdae2f2b	-0.0850509
184	0x3da9a8ab	0.08284124
185	0x3daf19e9	0.08549864
186	0x3d65e0b4	0.056122497
187	0xbd42a1da	-0.047517635
188	0xbd89a3c7	-0.06720691
189	0x3c8f25ec	0.017474137
190	0xbd1a5796	-0.037681185
191	0xbd6ef7c6	-0.058341764
192	0x3e00b9d7	0.12570892
193	0x3e28d376	0.16486916
194	0xbcac997d	-0.021069283
195	0xbcde3ed9	-0.027129577
196	0x3c8fe74e	0.01756635
197	0x3b8e5a58	0.004344266
198	0x3d2b9472	0.041889615
199	0x3d3df095	0.046372015
200	0xbe2da69f	-0.16958092
201	0xbd74eef6	-0.059798203
202	0x3e24920e	0.1607134
203	0x3d8ad903	0.06779673
204	0x3b883170	0.004156284
205	0xbdc53984	-0.09630111
206	0xbdc85665	-0.097821034
207	0xbe298b2a	-0.16556993
208	0xbd813491	-0.06308854
209	0x3d7549fc	0.05988501
210	0x3dfd55aa	0.12369855
211	0x3db8d2ec	0.09024605
212	0xbe29525c	-0.16535324
213	0xbdc85958	-0.09782666
214	0xbc852e53	-0.01625744
215	0x3e41fc60	0.1894393
216	0x3d7e5aed	0.062098432
217	0x3b9c9270	0.004778199
218	0x3e0a8f3c	0.13531202
219	0xbda7b460	-0.08188701
220	0xbdf3cb30	-0.11903989
221	0x3e07cad7	0.13260971
222	0xbde49427	-0.1116107
223	0xbd4ee5db	-0.050512176
224	0xbe479e50	-0.19493985
225	0x3e1b6eb7	0.15178953
226	0x3e3bbac1	0.1833296
227	0x3df1b5f6	0.118022844
228	0xbe09b724	-0.13448769
229	0xbe34b8c4	-0.17648607
230	0xbe14c793	-0.14529257
231	0x3ded0dda	0.115749076
232	0x3da448eb	0.080217205
233	0x3e16aa99	0.14713515
234	0x3def6283	0.116887115
235	0x3da2f98f	0.07957756
236	0x3d167798	0.036735147
237	0xbe0d5203	-0.13800816
238	0xbe16514c	-0.1467945
239	0xbe262ffc	-0.16229242
240	0x3d8a05d4	0.06739393
241	0xbdb3cda7	-0.087794594
242	0xbd0d0e7e	-0.03443765
243	0xbde00851	-0.10939086
244	0xbd2b21f1	-0.041780416
245	0xbe0b10da	-0.13580647
246	0xbe0dc9e0	-0.1384654
247	0x3d3113a1	0.04323161
248	0xbd8930ff	-0.066987984
249	0x3d7048f6	0.05866333
250	0xbdd04d86	-0.101710364
251	0xbe2a1bcb	-0.16612165
252	0xbd023f0b	-0.031798404
253	0xbdbbc8ae	-0.09169136
254	0xbd6d8d0a	-0.057995833
255	0xbe3f53b4	-0.18684274

conv1.bias f4 [16]
0	0xbcde42b5	-0.027131418
1	0x3df798cc	0.120896906
2	0xbe1ac066	-0.15112457
3	0x3e29e377	0.16590677
4	0xbd91623a	-0.07098813
5	0xbbf3308f	-0.00742156
6	0xbcc745b1	-0.024325224
7	0x3d688924	0.056771412
8	0xbcd98477	-0.026552422
9	0x3e2e0b9b	0.16996615
10	0xbb9be3c9	-0.0047573787
11	0x3e1fd321	0.15607883
12	0x3e7eca9a	0.24881974
13	0xbdb4559b	-0.088053904
14	0xbcdce01e	-0.026962336
15	0x3e4cbe71	0.19994523

conv2.weight f4 [32, 16, 3, 3]
0	0x3d528936	0.051400386
1	0xbd57df33	-0.052703094
2	0xbd443120	-0.04789841
3	0xbdb76ce7	-0.08956318
4	0xbd918a2c	-0.07106432
5	0xbb282e13	-0.0025662228
6	0x3cd8fa19	0.026486443
7	0x3c882cea	0.01662298
8	0xbcdc70cf	-0.02690926
9	0x3dccc8af	0.09999215
10	0x3d20e2dd	0.039278854
11	0xbc88a34a	-0.016679425
12	0x3d4bfd05	0.049801845
13	0x3d8bf7bc	0.06834361
14	0x3da28a98	0.07936591
15	0x3bb62811	0.0055589755
16	0x3dc273a4	0.09494713
17	0x3ceff9c9	0.029293912
18	0xbd870ad2	-0.06593861
19	0xbd3168fa	-0.043313004
20	0x3d9c7ade	0.076406226
21	0x3d8ad72a	0.067793205
22	0x3d914e2f	0.070949905
23	0x3d3e95d9	0.046529625
24	0x3d752c17	0.0598565
25	0xbc2db884	-0.010603074
26	0xbd32c84a	-0.04364804
27	0x3de28f61	0.110625036
28	0x3cf49959	0.029858278
29	0x3c5ebb7a	0.013594503
30	0x3d235159	0.0398725
31	0x3daa005c	0.0830085
32	0x3dddd4ab	0.10831579
33	0x3cdda9a0	0.027058423
34	0x3c0d8305	0.0086371945
35	0x3d8998f1	0.067186244
36	0xbd3f697d	-0.04673146
37	0xbd536fe1	-0.051620368
38	0x3d293fbd	0.04132055
39	0xbc5a1685	-0.013311033
40	0x3d946dbf	0.07247495
41	0x3d9dc770	0.07704055
42	0x3cc25824	0.02372367
43	0x3cdf9030	0.027290434
44	0x3c95aede	0.01827186
45	0x3d49c0b2	0.049256034
46	0x3d2f9cb1	0.042874042
47	0x3d064ec0	0.032789946
48	0x3d941ddd	0.072322585
49	0x3ddfcafe	0.109273896
50	0x3b545af1	0.0032402838
51	0x3d83e15b	0.064394675
52	0x3d89cd6a	0.06728633
53	0x3c998dac	0.018744312
54	0x3d31027e	0.043215267
55	0x3dbe0ca3	0.09279754
56	0x3ddb5264	0.10709074
57	0x3d7a4fa9	0.061111126
58	0xbd05070d	-0.032477427
59	0xbcb3fc1a	-0.021970797
60	0xbb8f3c4e	-0.0043712026
61	0x397fdc4e	0.00024400765
62	0x3cba6387	0.022752536
63	0xbd094bb8	-0.033519477
64	0x3d668c29	0.05628601
65	0xbcbcb5a8	-0.02303584
66	0xbc4c59a0	-0.01247254
67	0xbd004d60	-0.03132379
68	0x3dcccbea	0.09999831
69	0xbcd0f3ee	-0.02550694
70	0x3df93d98	0.12169951
71	0x3d416d85	0.047223587
72	0x3d58bfa8	0.052917153
73	0x3e00d409	0.12580885
74	0x3d9b7fa5	0.07592706
75	0x3dae035f	0.08496737
76	0x3dbe4592	0.09290613
77	0xbd0564d4	-0.03256686
78	0x3d1a5c40	0.037685633
79	0x3cd48108	0.025940433
80	0x3d0793ef	0.033100065
81	0x3da5c284	0.080937415
82	0x3d96f293	0.07370486
83	0x3aa3d76a	0.0012500111
84	0x3d8ed1ac	0.069735855
85	0x3e1a155a	0.15047207
86	0x3dfafe3e	0.12255524
87	0x3d2d22c6	0.04226949
88	0xbcc67fe0	-0.024230897
89	0x3d8d730d	0.0690671
90	0xbd5d272d	-0.05399244
91	0x3d84035c	0.06445953
92	0xbd45285c	-0.048134193
93	0xbbbb717c	-0.0057203155
94	0xbc8ffd2a	-0.017576773
95	0x3c67154d	0.0141042
96	0x3d98da2d	0.07463489
97	0x3bf69978	0.007525619
98	0x3d3beea0	0.045881867
99	0x3dfdd458	0.12394017
100	0x3de8d229	0.1136821
101	0x3c596078	0.013267629
102	0x3cd92ef1	0.026511641
103	0x3daf2329	0.08551628
104	0x3ce9d5d5	0.028544346
105	0x3d628038	0.05529806
106	0x3b966868	0.004590083
107	0xbcd2ef56	-0.02574889
108	0x3da0979b	0.078414164
109	0x3d5822b8	0.052767485
110	0x3d87d525	0.06632451
111	0x3e050115	0.12988694
112	0x3ddce24c	0.1078535
113	0x3e021839	0.12704553
114	0x3c66a8a1	0.01407829
115	0xbd61442c	-0.054996654
116	0xbcce7b0b	-0.025205156
117	0x3b276f17	0.0025548392
118	0xbd19c368	-0.03753987
119	0x3ae37585	0.0017353749
120	0xbd586c1a	-0.05283747
121	0xbd7c1b86	-0.061549686
122	0xbd013a64	-0.031549826
123	0xbd2e877f	-0.042609688
124	0xbcc59611	-0.024119409
125	0x3d4eeaea	0.050517
126	0x3dd6bb06	0.10484891
127	0xbcedffa1	-0.029052557
128	0xbd2ae561	-0.04172266
129	0x3e1a4478	0.15065181
130	0x3d73efc1	0.05955482
131	0x3c25993b	0.010107334
132	0x3e304951	0.17215468
133	0x3d2ffa62	0.042963393
134	0x3dfcbc6b	0.123406254
135	0x3dcd35a6	0.10019998
136	0x3d21ab02	0.039469726
137	0x3d2e363b	0.042532187
138	0xbccd0e90	-0.025031358
139	0x3cda9f09	0.026687162
140	0x3d22d898	0.03975734
141	0x3c231552	0.009953814
142	0x3d0cb876	0.034355603
143	0x3dc000e2	0.093751684
144	0x3d9f3502	0.07773782
145	0x3e0ba635	0.13637622
146	0x3d2261d6	0.039644085
147	0x3c3e78ec	0.01162551
148	0x3da7a6cb	0.0818611
149	0xbd1a00e9	-0.037598524
150	0x3dcad3bc	0.099036664
151	0x3d4f9420	0.050678372
152	0xbd233719	-0.039847467
153	0x3da294a4	0.07938507
154	0xbcfac11e	-0.030609664
155	0x3bb2ccd3	0.005456546
156	0x3c24fbcf	0.0100698015
157	0xbd35083b	-0.044197302
158	0xbcabf40e	-0.020990398
159	0x3cb0c1df	0.02157682
160	0x3dcfeba2	0.10152365
161	0x3df7187f	0.12065219
162	0x3d4ef29c	0.05052434
163	0xbd41b5db	-0.04729257
164	0xbd547193	-0.051866125
165	0x3d8d56bc	0.06901309
166	0x3ce667f8	0.028125748
167	0x3b0fc40b	0.002193692
168	0x3c1d549e	0.009602694
169	0xbd84b380	-0.064795494
170	0xbcd7c424	-0.026338644
171	0x3df90e88	0.12160975
172	0x3c0d6292	0.008629458
173	0x3ca71a47	0.020398272
174	0xbc8448a9	-0.016147928
175	0xbcc5f79c	-0.02416592
176	0x3b256e40	0.0025242716
177	0xbba68fec	-0.005083075
178	0x3c99c849	0.018772261
179	0x3cf87627	0.030329777
180	0xbd9eaa79	-0.07747359
181	0x3cc0faa7	0.02355702
182	0xbd56ab67	-0.052409556
183	0xbd1e4fcf	-0.03865033
184	0x3cf8f426	0.030389857
185	0x3d80edd0	0.06295359
186	0xbcb18cca	-0.021673579
187	0xbd055e8e	-0.032560878
188	0xbd92cc89	-0.07167918
189	0xbc3eb0d5	-0.01163884
190	0xbd2e39b0	-0.042535484
191	0x3bd16070	0.00638967
192	0x3d48b9e1	0.049005393
193	0xbd4ac518	-0.04950437
194	0x3db41a9c	0.08794138
195	0x3ddf7034	0.10910073
196	0xbcbf8f9b	-0.023383906
197	0x3be7bd64	0.0070721377
198	0x3da6439e	0.08118366
199	0x3d436009	0.047699008
200	0x3d89f946	0.06736998
201	0x3b07dae9	0.0020729846
202	0x3ddddec3	0.10833504
203	0x3c1b13a6	0.009465134
204	0x3db84283	0.08997061
205	0x3d1873e7	0.037219908
206	0x3d25e62d	0.040502716
207	0x3d8e2b69	0.069418736
208	0x39589954	0.00020656484
209	0xbd290fcb	-0.041274827
210	0xbc51dcf8	-0.012809031
211	0x3d8cf195	0.068820156
212	0xbd37ba80	-0.044855595
213	0x3cf4ac8c	0.029867433
214	0xbd87440f	-0.06604778
215	0x3d6370fc	0.055527672
216	0x3e2828f1	0.16421868
217	0x3e10580f	0.14096092
218	0x3e34d313	0.17658643
219	0x3ddd5c55	0.108086266
220	0x3e249cfe	0.16075513
221	0x3d3fe8f4	0.04685302
222	0x3d1694c2	0.03676296
223	0x3d8d1e25	0.06890515
224	0x3dd46bfb	0.10372158
225	0x3d197da6	0.037473343
226	0xbd1c7a35	-0.038202483
227	0x3dab0a55	0.0835158
228	0x3c9dbd8b	0.01925542
229	0x3d2f15a6	0.042745255
230	0x3ca3bf19	0.019988583
231	0x3d0956a7	0.033529904
232	0x3dd34781	0.10316373
233	0x3d99841f	0.07495903
234	0xbd3d07a2	-0.046149857
235	0x3cc7dd08	0.024397388
236	0xbcd052dd	-0.025430137
237	0x3d944b2f	0.07240903
238	0xbd8cda26	-0.06877546
239	0xbccd1aaa	-0.025037128
240	0xbd9ca91c	-0.076494426
241	0xbcff5991	-0.031170638
242	0x3cccacee	0.024984803
243	0x3dee0343	0.11621716
244	0x3d2e6643	0.042577993
245	0x3dbb10ce	0.091340646
246	0x3d7cf284	0.06175472
247	0x3db396dc	0.087690085
248	0x3dd0b0f9	0.10190005
249	0x3dd2b53e	0.102884755
250	0xbc32282a	-0.010873834
251	0x3dda2bd9	0.106528945
252	0x3d31902c	0.043350384
253	0xbd34256b	-0.043980997
254	0xbd238e69	-0.039930735
255	0xbd3396b8	-0.04384491

conv2.bias f4 [32]
0	0x3c999b18	0.018750712
1	0x3cec9213	0.028878247
2	0xbc91a800	-0.017780304
3	0x3b2e5b3f	0.002660468
4	0x3c1807fe	0.009279249
5	0x3cef4e90	0.029212266
6	0xbdb7d52e	-0.08976208
7	0x3dbe9aed	0.093068935
8	0x3c85ec76	0.016348105
9	0x3ca7376b	0.020412168
10	0x3c67e026	0.014152562
11	0x3bb9d4b2	0.005671107
12	0x3df08515	0.117441334
13	0x3cc3a7de	0.023883756
14	0x3c60ae65	0.013713454
15	0xbd460a94	-0.04834993
16	0xba56b9a0	-0.00081911124
17	0x3c5b778c	0.013395201
18	0x3d529b06	0.051417373
19	0x3d688eee	0.056776933
20	0x3da76bc4	0.081748515
21	0x3d896471	0.06708611
22	0x3c49055a	0.012269342
23	0xbcac3c5e	-0.021024879
24	0x3cb1771d	0.021663243
25	0xbcd1cb4d	-0.025609637
26	0xbd36a18e	-0.044587664
27	0x3cb5e591	0.022204192
28	0x3d46cb76	0.04853388
29	0xbc87f208	-0.016594902
30	0xbd06707e	-0.032822125
31	0x3d6d97ec	0.058006212

conv3.weight f4 [64, 32, 3, 3]
0	0x3cbe7f0c	0.02325394
1	0xbd48f073	-0.049057435
2	0x3cb09a33	0.021557903
3	0xbd482777	-0.04886576
4	0x3c816719	0.015796231
5	0xbb940fe4	-0.004518496
6	0xbcee8966	-0.029118251
7	0x3cdb16b9	0.026744233
8	0xbd93ccd0	-0.07216799
9	0xbd000ef6	-0.031264268
10	0x3d201a7e	0.039087765
11	0xbc999940	-0.018749833
12	0xbcd4d1f9	-0.025979029
13	0x3b7fb8e0	0.0039020106
14	0xbc83e176	-0.01609872
15	0x3ced6fb4	0.028983928
16	0x3d1bcc98	0.038036913
17	0x3c833be2	0.016019765
18	0xbd7de497	-0.06198558
19	0xbd7a5ede	-0.06112563
20	0xbd7015f5	-0.05861469
21	0xbdaf7125	-0.085665025
22	0xbdcf489b	-0.1012127
23	0xbd028988	-0.03186944
24	0x3c101f85	0.008796577
25	0xbcc28ed9	-0.023749756
26	0x3bd5bab4	0.006522501
27	0xbc30d22c	-0.010792296
28	0x3af37be1	0.0018576348
29	0x3cd2ac04	0.025716789
30	0xbd4c3dda	-0.049863674
31	0xbc59caa5	-0.013292943
32	0xbd18684d	-0.037208844
33	0xbdb3f82f	-0.08787572
34	0xbdc37fe1	-0.09545875
35	0xbd3ff8c8	-0.046868116
36	0x3d737fbe	0.059447996
37	0xbd4a3f69	-0.04937688
38	0xbc7ae23e	-0.015312729
39	0x3d449d09	0.048001323
40	0xbd531113	-0.051529955
41	0xbc4006c0	-0.011720359
42	0x3c9c3572	0.019068453
43	0xbd762a3a	-0.060098864
44	0xbd1b02d5	-0.037844498
45	0xbdf03d63	-0.117304586
46	0xbc77b222	-0.015118154
47	0xbd1c6986	-0.038186572
48	0xbd4e906e	-0.050430708
49	0xbce3082d	-0.02771386
50	0xbce5a232	-0.028031442
51	0xbcb14822	-0.02164084
52	0xbd5777ed	-0.052604605
53	0xbded0e9b	-0.115750514
54	0x3d4843d7	0.048892822
55	0x3c4b595b	0.012411441
56	0xbccfaa2e	-0.025349703
57	0xbcc6e17c	-0.024277441
58	0x3d48ce69	0.049024973
59	0x3c1276d1	0.008939461
60	0x3d171238	0.03688261
61	0x39f7fd6d	0.00047300328
62	0x3d43db9b	0.047816854
63	0xbc833361	-0.01601571
64	0xbb150058	-0.00227358
65	0xbcd84eda	-0.026404787
66	0x3a96dbf7	0.0011509646
67	0x3cbade80	0.022811174
68	0xbd3ec895	-0.04657801
69	0xbc132dc6	-0.008983081
70	0x3bf8034b	0.007568752
71	0xbd926940	-0.07148981
72	0xbd645a29	-0.055750046
73	0xbdce7d46	-0.10082488
74	0xbd4ee71f	-0.050513383
75	0xbda3f208	-0.08005148
76	0xbd06b298	-0.032885164
77	0xbc8053f3	-0.01566503
78	0xbde852c2	-0.1134391
79	0xbdd96b4a	-0.10616167
80	0xbcc1c20c	-0.0236521
81	0x3cc776ed	0.0243487
82	0x3dc9d93f	0.098558895
83	0x3dbafc29	0.09130127
84	0x3c43a00d	0.011940015
85	0xbc53b040	-0.012920439
86	0x3d68d87c	0.05684708
87	0x3d098644	0.03357531
88	0x3d890022	0.066894785
89	0x3ce3f696	0.027827542
90	0x3cd1fe46	0.025633942
91	0xbd581651	-0.052755658
92	0x3b4b58d3	0.0031028285
93	0x3c089387	0.0083359545
94	0x3cf95d58	0.030440018
95	0xbd0dae8b	-0.034590285
96	0xbc3a2c27	-0.011363066
97	0xbd1b6900	-0.037941933
98	0xbd2c75a5	-0.042104382
99	0x3d488960	0.048959136
100	0x3c3103cd	0.010804129
101	0x3b6b6f07	0.0035924332
102	0x3cad0ca0	0.021124184
103	0x3b0c4109	0.0021401069
104	0xbcb7c493	-0.022432601
105	0x3d3c0c3b	0.0459101
106	0xbd13444c	-0.035953805
107	0xbc37e91a	-0.011225009
108	0x3c907f14	0.01763872
109	0x3c9c5eb8	0.019088134
110	0xbd2846c4	-0.041083112
111	0x3d071687	0.032980468
112	0xbd45aa1d	-0.048257936
113	0x3c8ead86	0.017416727
114	0x3d0c6ccd	0.034283448
115	0xbc2b10f0	-0.01044105
116	0x3b8113af	0.003939114
117	0xbd86da5a	-0.06584616
118	0xbd8a334e	-0.06748067
119	0xbdc3187e	-0.09526156
120	0xbd8e15e3	-0.06937768
121	0xbd5b5f68	-0.053557783
122	0xbd0e2c2a	-0.034710087
123	0xbd0409f4	-0.032236055
124	0x3c629da8	0.0138315335
125	0xbdfc9f28	-0.12335044
126	0x3c39ee40	0.011348307
127	0x3d1d1c9f	0.038357373
128	0x3d417e25	0.04723944
129	0xbd2dea42	-0.042459734
130	0xbd95248b	-0.07282361
131	0xbd363c51	-0.044491116
132	0x3c9e5e8d	0.019332195
133	0xbcd74d87	-0.026282085
134	0x3c680d0e	0.014163269
135	0xbbbbf681	-0.0057361727
136	0xbc327ba6	-0.010893738
137	0x3d1162ac	0.03549449
138	0x3d24fb4b	0.040278714
139	0xbc9d5b33	-0.019208526
140	0x3d6c9cd9	0.05776677
141	0xbc1fb3d2	-0.009747462
142	0xbd10ae43	-0.03532244
143	0x3cabbd67	0.020964338
144	0xbcdc55e2	-0.02689642
145	0xbcbf0ee8	-0.023322538
146	0xbcd92a25	-0.026509354
147	0x3d0b228e	0.0339685
148	0x3d0bb46b	0.034107607
149	0x3d2f312f	0.042771515
150	0xbc57b32f	-0.013165279
151	0x3bb37edd	0.0054777698
152	0x3d834fc2	0.06411697
153	0xbd310f56	-0.043227516
154	0xbd2782cb	-0.04089622
155	0xbd037fdb	-0.032104354
156	0xbd88f4dd	-0.06687329
157	0xbd863874	-0.06553736
158	0x3c781cb9	0.015143567
159	0xbb4a005a	-0.0030822963
160	0xbc2e4f64	-0.010639045
161	0xbc723151	-0.014782266
162	0x3d32c34f	0.043643292
163	0x3d3e7558	0.046498626
164	0x3d4726d0	0.048621
165	0x3d0abc21	0.03387082
166	0x3d56fb51	0.052485768
167	0x3d3c0d28	0.045910984
168	0xbab77035	-0.0013995232
169	0x3c3f9c26	0.0116949435
170	0xbcc55615	-0.024088899
171	0xbd17e8b8	-0.037087172
172	0x3d671b9c	0.056422815
173	0xbd211e3e	-0.03933548
174	0xbd491ef9	-0.049101803
175	0xbd95669e	-0.07294963
176	0xbd800a0e	-0.06251918
177	0x3b6a17da	0.0035719783
178	0x3c4e865e	0.012605278
179	0xbd833fa2	-0.06408621
180	0x3d45ebf6	0.048320733
181	0xbd0b564a	-0.03401784
182	0xbbf5d0a0	-0.0075016767
183	0x3d83dc5c	0.064385146
184	0xbcbba215	-0.022904435
185	0xbd60cf20	-0.05488503
186	0x3d7968f0	0.06089109
187	0xbd05ca39	-0.032663558
188	0xbd1cdc74	-0.038296178
189	0xbd109523	-0.035298478
190	0x3c95e4f4	0.01829765
191	0xbcedbed1	-0.029021652
192	0xbd0533db	-0.032520156
193	0x3b86ed0a	0.0041176127
194	0xbc2ac9ec	-0.0104241185
195	0x3a87c74b	0.0010359077
196	0xbd9eea32	-0.07759513
197	0xbdaa0051	-0.083008416
198	0x3d407fc8	0.04699686
199	0x3d2e8a6c	0.042612478
200	0xbc870770	-0.016483039
201	0x3d097471	0.033558313
202	0xbd1d375e	-0.03838288
203	0x3c8a9df4	0.016921021
204	0x3d39c551	0.04535419
205	0x3bbcbfcd	0.005760169
206	0xbd46a904	-0.04850103
207	0xbc870df0	-0.016486138
208	0x399563b2	0.00028493773
209	0x3c8bf780	0.01708579
210	0xbda8c1c4	-0.08240083
211	0xbd6d673e	-0.057959788
212	0xbd418a5f	-0.0472511
213	0xbd793e38	-0.060850352
214	0xbd6ba0c0	-0.05752635
215	0xbd4eb542	-0.05046583
216	0x3c9d91c5	0.019234547
217	0xba8b07ca	-0.001060718
218	0xbd7e8e8e	-0.06214767
219	0x3d149a2d	0.036279846
220	0xbcf8de80	-0.030379534
221	0xbd33fa1c	-0.043939695
222	0xbbcb90e9	-0.006212343
223	0xbd66f9c3	-0.056390535
224	0xbd89ffee	-0.06738268
225	0xbd6f3d67	-0.058408167
226	0xbd0554a3	-0.03255142
227	0xbda69d1d	-0.08135436
228	0xbdb65a3c	-0.089039296
229	0xbdf429a2	-0.11922003
230	0xbdb7f4df	-0.08982252
231	0xbcf30821	-0.029666962
232	0xbc0d5799	-0.008626842
233	0xbde873c0	-0.113502026
234	0x3b2ecb1e	0.002667136
235	0x3d4c672a	0.049903072
236	0xbcbe26b8	-0.023211822
237	0x3d2accb9	0.041699145
238	0x3c1ff5a1	0.009763152
239	0xbd12d2a2	-0.035845406
240	0x3cf70fc0	0.030158877
241	0xbc8682b0	-0.016419739
242	0x3d100fe9	0.035171423
243	0xbd3b259e	-0.04569017
244	0x3d586873	0.052833986
245	0xbc8e0344	-0.017335542
246	0x3b18d529	0.0023320413
247	0xbd94df62	-0.072691694
248	0xbd9429c5	-0.072345294
249	0xbb50a9bc	-0.003183945
250	0x3b778556	0.0037768683
251	0xbd0d202b	-0.034454506
252	0xbda52cfe	-0.08065222
253	0xbd4ab95b	-0.049493175
254	0xbd8ffcb9	-0.07030625
255	0xbc6f6250	-0.014610842

conv3.bias f4 [64]
0	0x3d60b7e7	0.054862883
1	0xbd808c37	-0.06276744
2	0x3d0ddb1b	0.034632783
3	0xbd51c213	-0.051210474
4	0x3d315527	0.0432941
5	0x3bc8b247	0.006124768
6	0x3da4cd64	0.08046988
7	0x3c3294c6	0.010899728
8	0x3c35c2bc	0.011093792
9	0x3c253ed0	0.010085776
10	0xbc985c4a	-0.018598694
11	0x3d19bd6f	0.037534174
12	0x3d3c5494	0.045979097
13	0x3d901a97	0.070363216
14	0xbcd15380	-0.025552511
15	0x3d5a1399	0.053241346
16	0xbb443b2d	-0.0029942498
17	0x3d124fc5	0.035720605
18	0x3d48b0c5	0.048996706
19	0x3c18c5e7	0.009324527
20	0xbcce02a4	-0.025147744
21	0x3bf7fa2b	0.007567664
22	0xbd50c9ea	-0.05097381
23	0x3d84c400	0.064826965
24	0xbd160d60	-0.03663385
25	0x3cb9d93d	0.022686595
26	0x3d7f8293	0.062380385
27	0x3bf2cc2e	0.007409594
28	0x3ba035fc	0.004889248
29	0xbc9e9e1a	-0.019362498
30	0xbc395fb0	-0.011314318
31	0x3d775f0e	0.060393386
32	0xbc3382cc	-0.010956477
33	0x3d4e9a02	0.050439842
34	0x3cc42b29	0.023946362
35	0x3d4f9611	0.050680224
36	0x3d0ef37e	0.03490018
37	0xbb44e536	-0.0030043847
38	0xba067961	-0.0005129781
39	0xbd23c608	-0.03998378
40	0x3c9f204f	0.019424586
41	0xbb1be924	-0.0023790086
42	0x3d7724c1	0.060337786
43	0x3bfdea8e	0.0077489084
44	0xbd39c2dc	-0.045351848
45	0x3cc2860e	0.023745563
46	0xbc907f26	-0.017638754
47	0xbc3eca87	-0.011644966
48	0x3d968e5a	0.0735137
49	0xbccdb0c4	-0.025108702
50	0x3dcaa474	0.09894648
51	0xbc995225	-0.018715927
52	0x3cbebde1	0.0232839
53	0xbcfe7e7e	-0.031066176
54	0x3c0ccaf3	0.008593309
55	0x3dae1dbd	0.08501766
56	0xbd59f109	-0.053208385
57	0x3d80c201	0.06287003
58	0xbbef21eb	-0.0072977445
59	0xbca60d40	-0.02026999
60	0x3dac50ee	0.084138736
61	0x3d2bb70f	0.041922625
62	0x3c00f69d	0.007871297
63	0x3d27049a	0.040775873

conv4.weight f4 [128, 64, 3, 3]
0	0x3caac7ab	0.020847162
1	0xbc00874b	-0.007844756
2	0x3c2de951	0.010614709
3	0xbc9c4341	-0.019075038
4	0xbc922a03	-0.017842298
5	0xbd26efe7	-0.040756132
6	0xbce911c5	-0.028450856
7	0xbcb7c2c0	-0.022431731
8	0x3a404685	0.0007334727
9	0xbb797852	-0.0038066101
10	0xbcf553d1	-0.029947193
11	0xbc0cc546	-0.0085919555
12	0x3d239221	0.03993428
13	0xbc477204	-0.01217318
14	0xbcc1cccc	-0.023657225
15	0x3cbd1dfa	0.023085583
16	0xbbed6be3	-0.007245527
17	0xbb8cc3c7	-0.0042957994
18	0xbd13ffbf	-0.03613257
19	0xbd0a7063	-0.033798587
20	0x3b65a2b4	0.0035039606
21	0x3c909614	0.017649688
22	0xbcd91638	-0.026499853
23	0xbca993e4	-0.020700403
24	0x3b98eb4b	0.004666721
25	0x3ce080de	0.027405199
26	0xbc98c0cc	-0.01864662
27	0xbd1d5a0c	-0.038415954
28	0x3ce2070f	0.027591256
29	0xbd0f3abc	-0.034968123
30	0xbca48ba1	-0.020086112
31	0xbcded57a	-0.027201403
32	0x3c94e990	0.018177778
33	0x3cbb3774	0.02285359
34	0x3d1749ff	0.036935803
35	0x3b4d7d2a	0.0031355121
36	0xbd14a4de	-0.036290042
37	0x3c8fb601	0.01754284
38	0x3c86e224	0.016465254
39	0x3a67ec85	0.0008847195
40	0x3a2238a8	0.0006188252
41	0xbd2fc4bf	-0.04291224
42	0xbcb97bce	-0.022642042
43	0x3cc3a1ce	0.023880865
44	0xbc12ef9d	-0.008968261
45	0xbcfdb941	-0.030972125
46	0x3d3c66f7	0.045996632
47	0x3d0b8929	0.034066353
48	0x3d18ae82	0.0372758
49	0x3d0132c1	0.031542543
50	0x3cd7ba9f	0.026334105
51	0x3d57f9b5	0.052728374
52	0x3cf532e5	0.029931495
53	0xbcd803dd	-0.02636903
54	0xbc8ab7d2	-0.016933355
55	0x3c7dcb1f	0.015490322
56	0xbd028a68	-0.031870276
57	0xbca8395a	-0.02053516
58	0xbcaf49b4	-0.02139745
59	0xbc8e00c9	-0.017334359
60	0x3ce12fe9	0.027488666
61	0x3d1a1709	0.037619624
62	0xbc747fdf	-0.014923065
63	0xbce9647d	-0.0284903
64	0xbca1c478	-0.019747004
65	0xbd03c232	-0.03216762
66	0xbcc7ee13	-0.024405515
67	0xbc957dd0	-0.018248469
68	0x3c8f0126	0.017456602
69	0xbd6bb7cc	-0.05754833
70	0xbc2459c9	-0.010031172
71	0xbd277fab	-0.040893238
72	0xbd0190fd	-0.031632412
73	0x3ba2dba3	0.0049700304
74	0x3c8e2c0f	0.017354993
75	0x3cf4a8f6	0.029865723
76	0xbcd77e88	-0.026305452
77	0xbc0a2f91	-0.008434192
78	0xbd1876fc	-0.037222847
79	0xbce60a01	-0.028080942
80	0xbb0b7274	-0.0021277936
81	0x3caf8a4a	0.021428246
82	0xbbfa1111	-0.007631429
83	0x3cc8e68a	0.024523992
84	0x3b0705fa	0.0020602928
85	0xbc0503bc	-0.008118566
86	0x3c454d96	0.012042424
87	0x3d103406	0.035205863
88	0x3c9e66aa	0.019336063
89	0xbc3f7d12	-0.011687534
90	0xbd126d46	-0.035748743
91	0x3cb316c9	0.02186145
92	0x3c84d96d	0.016216958
93	0x3b2cec00	0.0026385784
94	0xbd44a39e	-0.0480076
95	0xbd7bc8dd	-0.061470855
96	0xbd4cd3c8	-0.050006658
97	0xbc069a6b	-0.008215527
98	0x3c7f37ef	0.0155773
99	0xbb4f496e	-0.003162946
100	0xbcce6452	-0.02519432
101	0xbc475b4c	-0.012167763
102	0x3ceb95de	0.028757986
103	0x3d26f99c	0.04076539
104	0x3bb588e2	0.0055399993
105	0x3cb73e37	0.022368534
106	0xbc0837d2	-0.00831409
107	0x3aee8ca8	0.0018199878
108	0xbd0dd6e5	-0.034628768
109	0x3c8e99fd	0.017407412
110	0xbc8ede39	-0.017439948
111	0xbcd91f25	-0.026504109
112	0xbc681d52	-0.014167147
113	0x3be66178	0.007030662
114	0xbd0b7de1	-0.034055594
115	0xbc8c2455	-0.017107168
116	0x3b935a1a	0.004496825
117	0xbbdee7b3	-0.006802523
118	0x3c305e3f	0.0107646575
119	0xbceb1feb	-0.028701743
120	0xbb518ebc	-0.0031975945
121	0xbca55b57	-0.020185156
122	0x3d117b9f	0.035518285
123	0xbd24a318	-0.0401946
124	0xbca84677	-0.020541413
125	0xbc84b11e	-0.016197737
126	0x3c5ced80	0.013484359
127	0xbcadd4c2	-0.021219615
128	0xbce8f27a	-0.028435934
129	0xbbe87f35	-0.0070952424
130	0xbc9204ce	-0.017824557
131	0x3d09bb7b	0.03362606
132	0x3cb0008a	0.021484632
133	0x3ce46425	0.027879784
134	0xbd16b53b	-0.03679393
135	0x3aaec80a	0.0013334763
136	0xbc9cfca5	-0.019163439
137	0x3d3f1452	0.04665024
138	0x3d0d508f	0.034500655
139	0xbca86850	-0.020557553
140	0xbc9e127a	-0.01929592
141	0x3cf33d11	0.029692205
142	0xbc2d27ea	-0.010568598
143	0x3cb10784	0.021610029
144	0xbd1e541e	-0.03865444
145	0xbd136633	-0.035986137
146	0xbc9ac4d0	-0.018892676
147	0xbd0d58ec	-0.03450863
148	0x3ca6840e	0.02032664
149	0xbd121f17	-0.03567418
150	0xbc8ca79c	-0.017169766
151	0xbd339594	-0.04384382
152	0x3cea8d4a	0.028631825
153	0x3c48f588	0.01226557
154	0xbc9797d6	-0.018505018
155	0xbb79814d	-0.0038071454
156	0x3c8db8d1	0.017300041
157	0xbc075eff	-0.008262395
158	0x3d147c7f	0.03625154
159	0xbb97fcbe	-0.0046382835
160	0x3d2a9567	0.041646387
161	0x3cd0d2ce	0.025491145
162	0x3cca2a93	0.024678504
163	0xbb11cb25	-0.0022246328
164	0xbc68f8dd	-0.01421949
165	0x3c69165d	0.014226523
166	0x3cb7c3ab	0.022432169
167	0x3b5f3e3b	0.0034064192
168	0x3b9aca95	0.0047238567
169	0x3cfe77c5	0.03106297
170	0xbcc4bd6d	-0.024016107
171	0xbb793b1b	-0.0038029614
172	0x3c0087e3	0.007844898
173	0x39576011	0.00020539785
174	0xbc8f9257	-0.017525835
175	0x3c930289	0.017945545
176	0x3c524f71	0.012836323
177	0xbc9f6941	-0.019459369
178	0x3b312078	0.002702741
179	0x3c1b47a2	0.009477528
180	0x3b5f5195	0.0034075726
181	0x3ca0e74e	0.019641545
182	0xbcedbf10	-0.02902177
183	0x3b040819	0.0020146428
184	0x3d168460	0.036747336
185	0x3c0cd6dc	0.008596148
186	0x3b452d6e	0.0030086893
187	0xbb4ea486	-0.003153117
188	0x3acea4cf	0.001576567
189	0xbccc950f	-0.02497342
190	0xbd233c5a	-0.039852478
191	0xbd4cb6b3	-0.049978923
192	0xbcc689e2	-0.02423567
193	0x3c972875	0.018451909
194	0x3c026626	0.007958924
195	0xbca68b32	-0.020330045
196	0xbb962b71	-0.0045828153
197	0xbc64ec63	-0.013972375
198	0xbc9ab720	-0.018886149
199	0x3c6ddac3	0.014517489
200	0x3c7215ec	0.014775734
201	0xbb09267a	-0.0020927475
202	0x3cbf8ff0	0.023384064
203	0x3c4202de	0.011841504
204	0xbca567bc	-0.020191066
205	0x3c1e86d3	0.009675699
206	0x3c38f9a9	0.011289992
207	0x3c18bf42	0.009322943
208	0xbd49485e	-0.04914128
209	0xbd70a70e	-0.058753066
210	0xbd02526b	-0.03181688
211	0xbc58ca78	-0.013231866
212	0xbd44dace	-0.04806023
213	0xbcce0425	-0.02514846
214	0xbd37018c	-0.04467921
215	0xbd3be5ad	-0.045873333
216	0x3c50bc92	0.012740271
217	0x3ca47086	0.020073187
218	0x3bc603c0	0.0060429275
219	0x3ce71fef	0.02821347
220	0xbc0f99e6	-0.00876472
221	0x3bbfd13d	0.0058538006
222	0x3cf5453a	0.029940236
223	0x3d098ddd	0.033582557
224	0x3c45beaa	0.012069384
225	0xbd121a6b	-0.035669725
226	0x3bf38b57	0.007432382
227	0x3cd4d0ef	0.025978534
228	0x3c4a98cc	0.012365531
229	0xbd259492	-0.04042489
230	0xbc71ebc4	-0.014765684
231	0xbc94acea	-0.018148858
232	0xbd1b72f3	-0.03795142
233	0xbd0cf385	-0.034411926
234	0x3cfe1cf2	0.031019662
235	0xbca3dd21	-0.020002903
236	0xbc9809fb	-0.018559447
237	0xbc0c48a6	-0.008562243
238	0x3b8a999c	0.0042297374
239	0x3d04691a	0.032326795
240	0xbcdb8e57	-0.026801271
241	0xbbd96329	-0.0066341353
242	0x3b869874	0.0041075293
243	0xbb80e477	-0.003933485
244	0xbd1d8422	-0.03845609
245	0xbd01df05	-0.03170683
246	0xbd23df99	-0.04000816
247	0xbce5ab54	-0.028035797
248	0xbb33efd2	-0.0027456176
249	0xbd26e7e6	-0.0407485
250	0xbcf5e094	-0.030014314
251	0xbd68fdfc	-0.056882843
252	0xbbdc6cec	-0.0067268517
253	0xbd32f84a	-0.04369382
254	0xbc2e5fe5	-0.01064298
255	0xbd700357	-0.058596935

conv4.bias f4 [128]
0	0x3d196c69	0.037456904
1	0x3d021687	0.031759765
2	0xbbb66e97	-0.0055673826
3	0x3d2a07a5	0.041511197
4	0xbce48005	-0.027893076
5	0x3d87711c	0.06613371
6	0xbcb9b602	-0.022669796
7	0x3d0c9c4d	0.034328748
8	0x3df93d94	0.12169948
9	0x3d31b79b	0.04338799
10	0x3d6d5aa8	0.057947785
11	0xbd081d85	-0.033231277
12	0x3d362c9f	0.044476148
13	0xbcc20e1a	-0.023688365
14	0xbd0d9400	-0.034564972
15	0xbd15091e	-0.036385648
16	0x3e0d437a	0.13795272
17	0xbc4f22e6	-0.012642598
18	0xbcd8fae4	-0.026486821
19	0xbc32f7ea	-0.010923365
20	0x3dae7d64	0.0852001
21	0xbd2a974e	-0.0416482
22	0xbd15b49f	-0.036549207
23	0xbd5b41d1	-0.053529564
24	0xbc90dc3e	-0.017683145
25	0x3c7ffec5	0.015624707
26	0x3e18e368	0.14930499
27	0xbd198535	-0.03748055
28	0x3dce5d39	0.100763746
29	0x3df539be	0.11973904
30	0x3c9f5a03	0.0194521
31	0x3d15ffa5	0.036620755
32	0xbb90818d	-0.004409975
33	0x3bc2c50c	0.0059439
34	0xbd0feeb8	-0.03513977
35	0xbc168cd3	-0.009188849
36	0x3cabeade	0.020986017
37	0x3dccdf5b	0.10003539
38	0x3bef20a8	0.007297594
39	0x3d9dc7a4	0.07704094
40	0x3dc94eb4	0.098294646
41	0x3e101254	0.14069492
42	0x3d81d5f7	0.06339639
43	0xbba3352a	-0.004980703
44	0x3d948a97	0.072529964
45	0x3d6c5d93	0.057706427
46	0xbd4ccca3	-0.049999844
47	0xbc13ee17	-0.009028933
48	0x3c8317b1	0.016002508
49	0x3d8ab161	0.067721136
50	0x3db46341	0.08807994
51	0xbc0ba194	-0.00852241
52	0xbce5a317	-0.028031869
53	0x3c8fb639	0.017542945
54	0x3db850c5	0.089997806
55	0x3d9d1e41	0.07671786
56	0x3cb77c47	0.022398127
57	0xbc49fe2f	-0.0123286685
58	0x3d685006	0.05671694
59	0x3cc0b86e	0.023525443
60	0x3d838d3c	0.06423423
61	0xbd0876b2	-0.03331632
62	0x3cd3469e	0.025790509
63	0xbd35a2fd	-0.04434489
64	0xbd5b09a6	-0.053476
65	0x3d3fc50e	0.046818785
66	0x3cd02b8f	0.025411395
67	0x3e0b09c3	0.13577943
68	0x3d2f3cd7	0.04278263
69	0x3c01affc	0.007915493
70	0x3c9e0484	0.019289263
71	0xbce20f65	-0.027595231
72	0xbbf886e0	-0.0075844377
73	0xbc665ae6	-0.014059758
74	0xbc26336d	-0.010144097
75	0xbcc960a8	-0.024582222
76	0xbccb7c12	-0.024839435
77	0x3e0e211f	0.13879822
78	0x3d45ee9b	0.048323255
79	0x3d4ee50b	0.0505114
80	0x3d56f8fb	0.05248354
81	0x3db0dde0	0.08636069
82	0x3da82e32	0.08211936
83	0x3cf1222b	0.029435238
84	0xbccd11dd	-0.025032932
85	0xbcde5000	-0.027137756
86	0xbbf2ca4d	-0.00740937
87	0xbca76d6b	-0.020437917
88	0xbc69f4fb	-0.014279599
89	0x3d4b44d9	0.049626205
90	0xbcdba8b0	-0.026813835
91	0xbcfee30d	-0.031114126
92	0x3d9e8f6c	0.07742199
93	0xbd1f89b0	-0.03894967
94	0x3d1c1a39	0.038110945
95	0xbd4c3c06	-0.04986193
96	0x3c98b344	0.018640168
97	0xbd06fca3	-0.032955777
98	0x3da6fb40	0.08153391
99	0xbb8c5fc9	-0.0042838794
100	0x3e10a2ed	0.14124651
101	0x3d4ea75f	0.050452586
102	0xbb8b74ae	-0.0042558527
103	0x3d95260f	0.0728265
104	0xbce81bef	-0.028333632
105	0xbcc2522a	-0.02372082
106	0x3d993559	0.074808784
107	0xbc4bd5b4	-0.0124410875
108	0x3de5edc5	0.112269916
109	0x3d856a71	0.06514443
110	0x3dc7bd15	0.097528614
111	0x3d8737da	0.0660245
112	0xbccde08f	-0.025131492
113	0x3c66db57	0.014090381
114	0x3cc1df99	0.02366619
115	0x3dd2682c	0.102737755
116	0x3d9e94af	0.07743203
117	0x3d9784d0	0.07398379
118	0x3d200ebb	0.039076548
119	0xbd0f4d9f	-0.034986135
120	0x3d43407e	0.047668926
121	0x3c855828	0.016277388
122	0x3dccffd2	0.10009731
123	0xbcd3e70b	-0.025867006
124	0x3dd18f12	0.102323666
125	0x3bd7e558	0.006588619
126	0x3d13bb72	0.036067434
127	0x3c4461d5	0.011986216

fc1.weight f4 [3, 128]
0	0xbc4786bd	-0.01217812
1	0xbcaa2459	-0.020769285
2	0xbd01a4a2	-0.031651147
3	0x3d4a7667	0.049429324
4	0x3d8b411a	0.067995265
5	0x3c34baf7	0.011030904
6	0xbd7dd511	-0.061970774
7	0xbdb031a1	-0.08603216
8	0xbc498342	-0.012299361
9	0xbd1c8969	-0.038216982
10	0xbc6d1c8e	-0.01447214
11	0x3d98e9d7	0.074664764
12	0x3d184b12	0.037180968
13	0x3bbf42fc	0.0058368426
14	0xbd25dfd2	-0.040496655
15	0x3ca70609	0.02038862
16	0xbc8db88d	-0.017299915
17	0x3d92bbd5	0.07164732
18	0xbc2e44cb	-0.010636519
19	0xbcfb3bf5	-0.030668238
20	0xbc30e841	-0.010797561
21	0xbd88572c	-0.06657252
22	0x3d726763	0.05918063
23	0xbcc61936	-0.024181943
24	0x3c8dd539	0.017313587
25	0x3b9d95a2	0.0048090974
26	0xbd14b8cd	-0.036309052
27	0xbb8c9f2c	-0.0042914357
28	0xbcbfc90e	-0.0234113
29	0xbd887341	-0.06662608
30	0xbcdf1d55	-0.027235666
31	0x3c7ac655	0.015306075
32	0x3d89905e	0.06716989
33	0x3d4926f5	0.049109418
34	0x3d98ac97	0.07454794
35	0xbc5ecbe8	-0.01359842
36	0x3b69c4d7	0.0035670304
37	0xbd07e504	-0.03317739
38	0xbcf1364d	-0.029444838
39	0xbd03cfb2	-0.032180496
40	0xbd190307	-0.037356403
41	0xbdae75c2	-0.08518554
42	0x3d3b7add	0.04577147
43	0x3cfd0d15	0.030890027
44	0xbd2a35bf	-0.041555163
45	0x3c93d8b5	0.01804767
46	0xbda12baa	-0.078696564
47	0xbd924f03	-0.071439765
48	0x3d9c8a98	0.07643622
49	0x3cb78ce6	0.022406053
50	0x3b236ab5	0.0024935429
51	0x3d4d31d4	0.050096348
52	0x39a0d3fb	0.00030675516
53	0x3d336c86	0.043804668
54	0xbca48241	-0.020081641
55	0xbd05be0e	-0.032651953
56	0x3d0ef636	0.034902774
57	0xbcb9c627	-0.022677494
58	0xbcaacf52	-0.020850811
59	0x3d255dd5	0.04037269
60	0x3d8c8c28	0.0686267
61	0x3d8cd411	0.06876386
62	0xbd57c818	-0.05268106
63	0x3c1eabba	0.0096844975
64	0xbb872ab8	-0.0041249655
65	0x3d69a3b1	0.057040874
66	0xbd3c683d	-0.045997847
67	0xbd5d2369	-0.053988848
68	0x3dbe267f	0.09284686
69	0xbc95d7a4	-0.018291302
70	0x3c8fe2f7	0.01756428
71	0x3d9d1be0	0.07671332
72	0x3bee37ac	0.00726982
73	0x3bd83de8	0.0065991767
74	0x3d79bd7b	0.06097172
75	0x3d72eadc	0.05930601
76	0xbcffa236	-0.031205278
77	0xbd7bf39b	-0.061511617
78	0xbccd6e5a	-0.025077034
79	0xbd0b911b	-0.03407393
80	0xbd10dbdb	-0.03536592
81	0x3e1b2927	0.15152417
82	0x3e050211	0.1298907
83	0xbd8f609e	-0.0700085
84	0xbd2f06dc	-0.04273115
85	0xba88c695	-0.0010435159
86	0x3d38688a	0.04502157
87	0xbd88cc6d	-0.06679616
88	0xbd05d59e	-0.032674424
89	0x3d6a1a7a	0.057154156
90	0xbd903022	-0.070404306
91	0x3c8603ff	0.016359327
92	0x3df78478	0.12085813
93	0x3bc9773b	0.0061482466
94	0x3cd490e0	0.025947988
95	0x3ccc6c5e	0.024954017
96	0x3db3df43	0.08782818
97	0xbcb5d63d	-0.022196883
98	0xbc838324	-0.016053744
99	0xbd813082	-0.0630808
100	0xbcc57f24	-0.024108477
101	0x3d219178	0.03944537
102	0xbacb4b72	-0.0015510155
103	0xbda25183	-0.079257034
104	0xbd887007	-0.066619925
105	0xbbe9cff3	-0.007135385
106	0xbcf6af9d	-0.030113036
107	0xbca200bd	-0.019775743
108	0xbcbff079	-0.023430096
109	0x3b84eaee	0.004056326
110	0xbd419b10	-0.04726702
111	0x3d173adc	0.036921367
112	0xbd5da973	-0.054116677
113	0x3d88beeb	0.0667704
114	0x3d22c6da	0.03974042
115	0x3e048142	0.12939933
116	0xbcdf1091	-0.02722958
117	0xbd75ef7c	-0.060042843
118	0xbc47a2ab	-0.012184779
119	0x3d2cacde	0.042157046
120	0xbd137db6	-0.03600856
121	0x3cb8cf3b	0.022559753
122	0xbd425f51	-0.047454182
123	0xbc8533dd	-0.016260082
124	0x3da4bb12	0.08043493
125	0x3dedb61c	0.11607
126	0xbca85aab	-0.020551046
127	0x3cfa134a	0.030526776
128	0xbdc27732	-0.09495391
129	0x3cbe4e13	0.023230588
130	0x3d44d015	0.048050005
131	0x3dc1233e	0.0943055
132	0x3c06e0f7	0.008232347
133	0x3de7474b	0.11292895
134	0xbcc26c5a	-0.023733307
135	0xbcace061	-0.021103086
136	0xbd4da758	-0.05020842
137	0x3d80c5d2	0.06287731
138	0xbcd354ee	-0.025797334
139	0x3d70cca0	0.058788896
140	0xbdad224b	-0.084538065
141	0x3d093d08	0.03350547
142	0xbc844958	-0.016148254
143	0x3d4d15b3	0.050069522
144	0xbd31530d	-0.043292094
145	0xbc9eee77	-0.019400818
146	0xbd88f283	-0.066868804
147	0x3d9c8717	0.07642954
148	0xbd751585	-0.059834976
149	0x3c8e141b	0.017343571
150	0xbd861faa	-0.06549008
151	0xbc865d87	-0.01640202
152	0x3dd184ce	0.102304086
153	0x3d9bc041	0.07605029
154	0xbd5821b2	-0.05276651
155	0x3b84cd8b	0.004052823
156	0xbd25dd7d	-0.04049443
157	0xbc8712b9	-0.01648842
158	0xbc899500	-0.016794682
159	0x3d8c09e1	0.06837822
160	0x3d9cfea7	0.076657586
161	0xbd61836c	-0.055056974
162	0xbc52a4df	-0.012856691
163	0x3d1931b6	0.037400924
164	0x3dd136cc	0.1021553
165	0xbc5dad58	-0.013530098
166	0x3d7a2924	0.06107439
167	0xbab9069f	-0.0014116353
168	0xbc943bec	-0.01809498
169	0xbd5c05ce	-0.053716473
170	0x3d71e2f6	0.059054337
171	0x3cac20c4	0.021011718
172	0xbcbbd2a4	-0.02292759
173	0x3d8b67c8	0.06806904
174	0x3d57ad94	0.05265577
175	0xbd930c48	-0.07180077
176	0x3ce27af6	0.027646523
177	0xbd7fec77	-0.06248137
178	0xbd927acb	-0.07152327
179	0xbd921333	-0.07132568
180	0x3dab109f	0.083527796
181	0xbcb13fb0	-0.021636814
182	0xbd531d30	-0.051541507
183	0xbc92ef82	-0.017936472
184	0x3d681442	0.056659944
185	0xbcf5996d	-0.029980386
186	0xbd6e1a13	-0.058130335
187	0x3d76245e	0.060093276
188	0x3da6cbc0	0.08144331
189	0xbcda3cdc	-0.026640348
190	0xbb6aa432	-0.0035803434
191	0xbd8a1972	-0.067431346
192	0xbb971eea	-0.0046118395
193	0x3d4c902d	0.049942184
194	0x3d26f602	0.040761955
195	0xbd982f44	-0.0743089
196	0x3d6ae457	0.057346668
197	0xbbc53eab	-0.0060194335
198	0x3d05cb52	0.032664604
199	0xbc946c04	-0.018117912
200	0xba56cbfb	-0.00081938476
201	0x3da5a4b0	0.08088052
202	0x3cc279bb	0.023739686
203	0xbc659407	-0.014012343
204	0x3c200f3c	0.009769257
205	0xbd41b4b4	-0.047291473
206	0xbbe86276	-0.0070918156
207	0x3c2ab316	0.010418674
208	0xbc8395db	-0.016062668
209	0x3dc2f29e	0.09518932
210	0x3d2adab0	0.041712463
211	0x3d0eb08d	0.03483634
212	0x3cf00bf3	0.029302573
213	0x3c6a17d2	0.014287906
214	0xbbad42bd	-0.005287497
215	0x3d8c19e6	0.06840877
216	0x3cdf77bd	0.027278775
217	0xbd88bd78	-0.06676763
218	0x3c35a90f	0.01108767
219	0x39a1fb43	0.00030895518
220	0x3d4cc98a	0.04999689
221	0xbb69e1d9	-0.0035687594
222	0xbb96a163	-0.0045968755
223	0xbd15f496	-0.03661021
224	0x3d9c137f	0.07620906
225	0x3c84e885	0.016224155
226	0xbd85ec6d	-0.06539235
227	0xbdb211c5	-0.086947955
228	0xbd26624a	-0.04062108
229	0xbd675699	-0.05647907
230	0xbd62eece	-0.055403523
231	0xbdb31ced	-0.087457515
232	0xbce6220e	-0.02809241
233	0x3cb456e1	0.022014083
234	0x3bafdbec	0.005366793
235	0xbd0c9c40	-0.0343287
236	0xbd8e80fb	-0.06958195
237	0x3dd82faf	0.1055597
238	0xbcd87b62	-0.026426021
239	0xbd927b47	-0.071524195
240	0xbd1d1fe9	-0.03836051
241	0xbd4caa38	-0.04996702
242	0xbce240b4	-0.027618743
243	0x3d135d2c	0.035977527
244	0xbbe6ce2f	-0.007043622
245	0xbcb1b560	-0.021692932
246	0xbd13b6e5	-0.036063094
247	0x3ccfc9a0	0.025364697
248	0x3c1d2337	0.009590915
249	0xbd87aaa0	-0.06624341
250	0xbb6dd5c2	-0.003629074
251	0xbcdce9a9	-0.026966887
252	0x3dbbf2e7	0.09177189
253	0x3d88f335	0.06687013
254	0xbd5049b0	-0.050851524
255	0x3d9dc363	0.07703283

fc1.bias f4 [3]
0	0x3cb8475d	0.022494966
1	0x3d34ec69	0.04417077
2	0x3ce834e2	0.028345529
