Code/Deep_Q_learning_results/best_weights_using_gs_fc_128_100ms_2.pt (torch, 72191 bytes, 6 tensors)

0.weight f4 [128, 3]
0	0x3e8bcaee	0.2730326
1	0x3f01782d	0.50574
2	0xb993b8bc	-0.00028175663
3	0x3f0045b7	0.50106376
4	0xbde81e16	-0.113338634
5	0x3dee4ba3	0.1163552
6	0xbe87ed36	-0.26548165
7	0x3e9df27a	0.30849057
8	0x3efff1b1	0.49989083
9	0xbec067af	-0.37579104
10	0x3eccd4b7	0.4000604
11	0x3e186d68	0.14885485
12	0x3ea6e7e3	0.3259879
13	0x3e0652fb	0.13117592
14	0x3e87f971	0.26557496
15	0xbde42fc2	-0.111419216
16	0x3ee646ca	0.44975883
17	0x3d82441a	0.063606456
18	0xbe968171	-0.2939563
19	0x3e5a3fde	0.21313426
20	0xbe9265ab	-0.28593192
21	0xbde13757	-0.10996883
22	0xbe141f1c	-0.14464992
23	0x3ea529aa	0.3225835
24	0xbec824a6	-0.3909046
25	0xbe746b9f	-0.23869179
26	0xbe56ad03	-0.20964436
27	0xbe83c6b8	-0.25737548
28	0x3d172b6e	0.036906652
29	0xbf1ddcea	-0.61665213
30	0x3ef757cf	0.4830918
31	0xbeea80b6	-0.45801324
32	0x3ee22ee7	0.4417641
33	0x3d2cbaa5	0.042170186
34	0xbe1c4aee	-0.15262958
35	0x3eb86bea	0.36019832
36	0xbb1e9155	-0.0024195511
37	0x3f0c2bf1	0.5475455
38	0x383694af	4.3530654e-05
39	0xbe5697d0	-0.2095635
40	0x3e50cde9	0.20391048
41	0xbe2dbdd9	-0.16966952
42	0x3e3c0c04	0.18363959
43	0x3ee4988f	0.44647643
44	0x3eb48be8	0.3526299
45	0xbe6dde65	-0.23229368
46	0x3e5cfb74	0.21580297
47	0x3e255b18	0.16148031
48	0x3e7ad1c5	0.24494083
49	0xbe95a9a4	-0.29230988
50	0xbf0b4a2d	-0.5441006
51	0xbe5b25c8	-0.21401131
52	0xbedf202a	-0.43579227
53	0x3ef4f4a7	0.47842905
54	0x3e34d982	0.17661098
55	0x3e66b06f	0.22528242
56	0x3e0fdcfb	0.14049141
57	0x3a74ed4a	0.000934322
58	0x3eda1b42	0.4259892
59	0xbed58876	-0.41705674
60	0x3d09bfa7	0.03363004
61	0xbea9ec30	-0.3318801
62	0x3e14f9a8	0.14548361
63	0xbe3d2781	-0.18472101
64	0x3e2848e7	0.1643406
65	0xbde4e4b1	-0.11176432
66	0x3ee732c2	0.45155913
67	0xbeaead34	-0.34116518
68	0xbeadc8ae	-0.3394217
69	0xbebef82d	-0.37298718
70	0x3f10eb7a	0.5660931
71	0x3e28e890	0.16494966
72	0x3f0d30be	0.551525
73	0xbefd515e	-0.4947614
74	0xbf01147c	-0.5042188
75	0xbeea8b4a	-0.45809394
76	0xbe81e78d	-0.25371972
77	0x3e03f589	0.12886633
78	0x3dfcaf72	0.12338151
79	0x3f141dc5	0.57857925
80	0xbea3ab84	-0.31966794
81	0xbec6e536	-0.3884675
82	0x3e9e6e05	0.30943313
83	0xbe63eb94	-0.22257835
84	0x3e988886	0.2979166
85	0xbdbd1cae	-0.09233986
86	0x3e8f3fb5	0.27978292
87	0xbed84b81	-0.42245105
88	0xbe33b11c	-0.1754803
89	0x3dafa062	0.085755125
90	0x3da65530	0.08121717
91	0xbcd8cea5	-0.026465723
92	0x3e6232ee	0.2208974
93	0x3ebb9009	0.36633328
94	0xbed8a99f	-0.4231691
95	0xbe7e0e27	-0.24810086
96	0x3f0e92a2	0.55692494
97	0xbe69ed62	-0.2284446
98	0xbe45b281	-0.19306375
99	0xbefbe41d	-0.49197474
100	0xbe661130	-0.22467494
101	0x3c0d7550	0.0086339265
102	0x3cb1eaa8	0.021718338
103	0xbeeb1359	-0.459132
104	0x3cdb968b	0.026805183
105	0xbebb8d9c	-0.36631477
106	0xbee8ee4e	-0.45494312
107	0xbe97420e	-0.29542583
108	0xbef3ee1e	-0.47642606
109	0xbe83123c	-0.2559985
110	0x3ee2ef36	0.44323128
111	0x3d411096	0.04713496
112	0x3e38e805	0.18057258
113	0xbee91b27	-0.45528528
114	0xbeb3bfeb	-0.3510736
115	0xbe05c90d	-0.13064976
116	0x3d7fdc26	0.06246581
117	0xbeec1efe	-0.46117395
118	0xbe71b673	-0.23604755
119	0xbea9e86b	-0.33185133
120	0x3c48362b	0.012219946
121	0xbe5b8c80	-0.21440315
122	0xbd215b4d	-0.03939371
123	0xbebcaaec	-0.36849153
124	0xbeae28f6	-0.34015626
125	0xbeab8b96	-0.33504933
126	0xbe1f60b0	-0.15564227
127	0xbed37eda	-0.41307718
128	0x3ec75d40	0.38938332
129	0xbe2743ff	-0.16334532
130	0x3f148660	0.5801754
131	0x3df21af3	0.118215464
132	0xbef5c1d7	-0.4799945
133	0x3ed46ea6	0.41490668
134	0xbe42822f	-0.18994974
135	0xbe21fa62	-0.1581817
136	0xbefb3eec	-0.49071443
137	0xbf0408d8	-0.51575994
138	0x3e144449	0.14479174
139	0xbd6b86c5	-0.057501573
140	0x3e1be628	0.15224516
141	0xbede1f29	-0.43383148
142	0x3eed2f4b	0.46325144
143	0xbeeeac86	-0.46616
144	0xbdb80f6c	-0.089873165
145	0x3d7cddf7	0.06173512
146	0x3e9b545a	0.30337793
147	0x3ea357eb	0.31903014
148	0x3f109315	0.5647443
149	0xbec11530	-0.37711477
150	0x3e03a08d	0.12854214
151	0xbe65bd61	-0.22435524
152	0xbd663fd0	-0.0562132
153	0xbecbf809	-0.39837673
154	0x3ec9d4e3	0.39420232
155	0xbeb77890	-0.3583417
156	0x3e92e3b8	0.2868936
157	0x3e410754	0.18850452
158	0x3e328098	0.17431867
159	0xbe9a2bba	-0.30111486
160	0x3f066355	0.5249532
161	0x3ddd1899	0.10795707
162	0xbd136e0b	-0.035993617
163	0xbef69fa1	-0.48168662
164	0x3eaeb81f	0.34124848
165	0xbd9d37e6	-0.076766774
166	0xbe6cdd9b	-0.23131411
167	0x3edcb5d6	0.4310748
168	0x3deaa05f	0.114563696
169	0xbea882f6	-0.32912415
170	0xbe8415f1	-0.2579799
171	0x3d08ef56	0.033431374
172	0x3e5b16a0	0.2139535
173	0xbe0757a7	-0.1321703
174	0xbe9dd9d9	-0.30830267
175	0xbdc6bc38	-0.09703869
176	0xbf00a368	-0.5024934
177	0x3e43342a	0.19062868
178	0x3eafbc4e	0.34323353
179	0xbeee33d3	-0.46523914
180	0x3e0726db	0.13198416
181	0x3e6bb044	0.23016459
182	0x3de70e11	0.1128198
183	0xbe3167a7	-0.17324696
184	0x3e1cfbae	0.15330383
185	0x3eacea45	0.33772483
186	0x3e8a938e	0.270657
187	0xbe38ca8c	-0.18046016
188	0xbe3976d7	-0.1811174
189	0x3d348b0b	0.044077914
190	0xbde9294c	-0.1138483
191	0xbe0de629	-0.1385733
192	0x3ed57e4e	0.41697925
193	0x3edbe696	0.4294936
194	0xbde643c2	-0.112433925
195	0xbdf59235	-0.119907774
196	0x3c000bf9	0.0078153545
197	0xbd033699	-0.03203449
198	0x3dc3ba04	0.09556964
199	0x3dd624c0	0.10456228
200	0xbed13b1c	-0.4086541
201	0xbe6dbcdf	-0.2321658
202	0x3f117fba	0.5683552
203	0x3dfe030b	0.12402924
204	0xbcda7bb7	-0.02667032
205	0xbea5984d	-0.3234276
206	0xbea801a2	-0.32813746
207	0xbedda2b0	-0.43288183
208	0xbe2ffe51	-0.17186858
209	0x3de87bb5	0.1135172
210	0x3ea6d737	0.3258607
211	0x3dd09aa5	0.10185746
212	0xbead37af	-0.33831546
213	0xbea29d27	-0.31760523
214	0xbc04784f	-0.008085324
215	0x3edfc953	0.43708286
216	0x3bfc69fa	0.007703063
217	0xbda63894	-0.0811626
218	0x3e5e34be	0.21699807
219	0xbe6c7395	-0.23090966
220	0xbe9e31b4	-0.30897295
221	0x3ec856b0	0.39128637
222	0xbe8bd6b3	-0.2731224
223	0xbd94b878	-0.07261747
224	0xbf14e240	-0.5815773
225	0x3eb7c8df	0.3589544
226	0x3ed00d17	0.40634987
227	0x3e482b87	0.19547854
228	0xbeb69d01	-0.3566666
229	0xbf0617e2	-0.5238019
230	0xbedf1dad	-0.43577328
231	0x3eb8e981	0.3611565
232	0x3eb47ce1	0.35251525
233	0x3eca5e9c	0.39525306
234	0x3e4bc695	0.19899972
235	0x3e370104	0.17871481
236	0x3bad0eef	0.0052813212
237	0xbed0d7e3	-0.40789708
238	0xbeeb3aa2	-0.4594317
239	0xbf004279	-0.5010143
240	0x3e5f3b53	0.21799974
241	0xbe7ff2e4	-0.24994999
242	0xbdf5e9aa	-0.120074585
243	0xbec83b03	-0.39107522
244	0xbc8516f4	-0.016246296
245	0xbec619e0	-0.38691616
246	0xbeaca6c3	-0.3372098
247	0x3e8af751	0.27141812
248	0xbeaa53c3	-0.3326703
249	0x3eb30134	0.34961855
250	0xbe599db1	-0.21251561
251	0xbebd0737	-0.36919567
252	0xbe153017	-0.14569126
253	0xbe4a7a7c	-0.19773287
254	0xbe2b1eca	-0.16710964
255	0xbed83905	-0.42231002

0.bias f4 [128]
0	0x3d056d4b	0.032574933
1	0x3ed565e5	0.41679302
2	0xbee7ac6b	-0.45248732
3	0xbe595de3	-0.21227221
4	0x3e4d8a6f	0.2007234
5	0xbe26d011	-0.16290309
6	0xbdd09dec	-0.10186371
7	0xbe9208ef	-0.2852244
8	0x3e832d1d	0.25620356
9	0x3ea13026	0.31482047
10	0x3e3991a3	0.18121962
11	0xbe9e5c33	-0.30929717
12	0xbecb51b2	-0.39710766
13	0x3d74a722	0.059729703
14	0x3e1abbb7	0.1511067
15	0xbe82bd45	-0.25535026
16	0xbe6b6f96	-0.22991785
17	0x3ea48b58	0.3213756
18	0xbc086a43	-0.008326116
19	0xbc025efb	-0.007957215
20	0xbe421d68	-0.1895653
21	0xbef83305	-0.48476425
22	0xbf14e752	-0.58165467
23	0xbdf0daeb	-0.11760505
24	0xbe867b33	-0.2626587
25	0xbb276c7d	-0.0025546842
26	0xbc4ca8c8	-0.012491412
27	0xbe8d94f0	-0.27652693
28	0x3ea0c9d3	0.3140398
29	0x3bac6836	0.0052614463
30	0x3e637191	0.22211291
31	0xbe96117f	-0.29310223
32	0xbe3e0a4d	-0.18558617
33	0x3c0c8d7d	0.008578655
34	0xbeb02663	-0.34404287
35	0xbeb3897e	-0.35065836
36	0xbe526872	-0.20547655
37	0xbe92d252	-0.28676087
38	0xbee29690	-0.44255495
39	0x3eb848e1	0.35993102
40	0x3ef71fb7	0.48266384
41	0x3de17252	0.11008133
42	0xbe58f378	-0.21186626
43	0xbedcf8d1	-0.43158582
44	0xbe7980b8	-0.24365509
45	0x3de57248	0.11203438
46	0x3e177d0a	0.14793792
47	0xbd771cb1	-0.060330097
48	0xbe69c37e	-0.2282848
49	0x3ea586b6	0.3232934
50	0xbeddfbf9	-0.43356302
51	0x3e81764c	0.25285566
52	0xbe5517d6	-0.20809874
53	0xbc02751d	-0.007962492
54	0xbd7fa6db	-0.062414985
55	0xbabd8640	-0.0014459565
56	0xbe50745b	-0.20356886
57	0x3ebc452a	0.36771518
58	0xbc26ca90	-0.010180131
59	0x3eba9cd6	0.3644778
60	0x3eb26c8c	0.3484844
61	0xbe8218bd	-0.254095
62	0xbeb0021b	-0.34376606
63	0x3ef56f7b	0.47936615
64	0x3ebabe69	0.36473396
65	0xbed1aeb1	-0.4095359
66	0xbdc24fba	-0.09487863
67	0xbef5f727	-0.48040125
68	0xbee0cd0e	-0.43906444
69	0xbd13b13b	-0.036057692
70	0x3e00e430	0.12587047
71	0xbd754425	-0.05987944
72	0xbe27ce44	-0.16387278
73	0x3ebe8132	0.37207943
74	0x3db7f7b2	0.08982791
75	0xbea21eef	-0.31664225
76	0xbb93d55c	-0.0045115184
77	0x3cb608e6	0.02222104
78	0x3e1bd7ae	0.15218994
79	0xbec22e92	-0.37926155
80	0x3e0de9d3	0.13858728
81	0xbe89f527	-0.2694485
82	0xbee106a9	-0.43950394
83	0xbea5e604	-0.3240205
84	0x3ea267ca	0.3171981
85	0x3eef6985	0.46760193
86	0x3eeb1c7e	0.45920175
87	0x3e884b54	0.2661997
88	0x3eaa2993	0.33234844
89	0xbd510808	-0.05103305
90	0xbed6d272	-0.41957432
91	0x3e764185	0.24048431
92	0xbe944587	-0.28959295
93	0xbec8f990	-0.392529
94	0xbe53ae59	-0.20671977
95	0x3bb146c3	0.005410047
96	0x3e12bc9b	0.1432976
97	0xbe844028	-0.25830197
98	0xbecbdcb3	-0.39816818
99	0x3cbd252d	0.023089016
100	0xbea1f1bc	-0.3162974
101	0xbed54a3e	-0.41658205
102	0x3e38732d	0.18012686
103	0xbdf6eeb6	-0.12057249
104	0x3eb7b60b	0.35881075
105	0x3ed8358e	0.4222836
106	0x3e53520c	0.20636767
107	0x3deb17b7	0.114791326
108	0x3d7225bd	0.05911802
109	0xbd56973d	-0.052390326
110	0xbd81d775	-0.06339923
111	0xbd0dc588	-0.03461221
112	0x3da74024	0.08166531
113	0x3e9b49dc	0.30329788
114	0xbe3668ce	-0.17813417
115	0xbe64ea86	-0.22355089
116	0xbe08aea9	-0.13347878
117	0xbe84d3a3	-0.25942716
118	0x3ceefb93	0.029172694
119	0x3e83bed3	0.25731525
120	0x3eda28a4	0.4260913
121	0x3e0e6aee	0.13907978
122	0xbee4fde7	-0.44724962
123	0xbe877fee	-0.2646479
124	0xbe0601f2	-0.1308668
125	0xbd14e302	-0.036349304
126	0x3d064d47	0.03278854
127	0xbf007cf6	-0.50190675

2.weight f4 [128, 128]
0	0x3cd15d00	0.025557041
1	0xbd801bb1	-0.06255282
2	0xbd54d41d	-0.0519601
3	0xbd8bc420	-0.06824517
4	0x3d92a131	0.07159651
5	0xbd9f3572	-0.07773866
6	0x3d7d4bd0	0.06183988
7	0xbb34ea46	-0.0027605458
8	0xbc1c62de	-0.009545056
9	0x3d525f92	0.051360674
10	0xbbf833d8	-0.0075745396
11	0x3d52f084	0.051498905
12	0x3d72ec41	0.05930734
13	0xbd921118	-0.071321666
14	0x3d0151fb	0.031572323
15	0x3c7d8d66	0.015475607
16	0x3c9096ce	0.017650034
17	0x3c4469be	0.0119881015
18	0x3cb7fc9b	0.022459319
19	0xbd21e075	-0.0395207
20	0xbc2c107d	-0.010501978
21	0x3d9fc8d2	0.07801975
22	0x3d61fa3a	0.055170275
23	0xbb4a2be9	-0.0030848926
24	0xbd9e0e0e	-0.077175245
25	0x3b6bce44	0.0035981098
26	0xbd651302	-0.05592633
27	0x3d88cd70	0.06679809
28	0xbd4c28ae	-0.049843483
29	0xbbc246fd	-0.0059288726
30	0xbc955f5e	-0.018233951
31	0x3c6f5198	0.014606856
32	0x3d9e2378	0.07721609
33	0x3bff465e	0.007790371
34	0x3d42cc7e	0.0475583
35	0x3d828652	0.06373276
36	0x3d87d830	0.06633031
37	0xbce849ee	-0.028355565
38	0xbc968031	-0.018371673
39	0x3d222a75	0.03959127
40	0xbcb78b20	-0.022405207
41	0x3d1d656d	0.038426805
42	0xbc9315c9	-0.017954724
43	0xbd642691	-0.055700842
44	0x3d08f2c5	0.033434648
45	0x3c4e3fac	0.012588423
46	0x3d1604c2	0.03662563
47	0x3da71449	0.08158166
48	0x3d65abe3	0.056072127
49	0x3d9f65b4	0.0778307
50	0x3b8fec2a	0.0043921666
51	0xbd909e7b	-0.07061478
52	0xbd6be6f8	-0.057593316
53	0xbd50eb31	-0.051005546
54	0xbd944c98	-0.072411716
55	0xbd2892f9	-0.04115579
56	0xbd9ac50c	-0.07557115
57	0xbd9b1b4d	-0.075735666
58	0xbd48fb37	-0.049067702
59	0xbda5cf39	-0.08096165
60	0xbd4e6e6b	-0.05039827
61	0x3d000fe3	0.03126515
62	0x3d8c337f	0.068457596
63	0xbcc818f6	-0.024425965
64	0xbcc3abb1	-0.02388558
65	0x3d339b22	0.043849118
66	0xbd25f5ca	-0.040517606
67	0xbd1efa60	-0.038812995
68	0x3d4f36da	0.05058942
69	0xbd92a05c	-0.071594924
70	0x3c248adc	0.010042872
71	0x3d94a67b	0.07258316
72	0x3c66c311	0.014084593
73	0x3cb6ed09	0.022329824
74	0xbd43e239	-0.047823165
75	0xba9495a6	-0.0011336103
76	0x3b940d84	0.0045182128
77	0x3ca52131	0.020157428
78	0x3d02aea7	0.031904843
79	0x3d92325b	0.07138511
80	0xbd802f7f	-0.06259059
81	0x3b216431	0.002462637
82	0xbd280a16	-0.041025244
83	0xbd853290	-0.06503785
84	0xbbd77d78	-0.0065762363
85	0xbd9421fb	-0.07233044
86	0x3d6aaa7e	0.0572915
87	0x3c1bbfbe	0.009506164
88	0xbd35474e	-0.044257455
89	0x3d2fce09	0.0429211
90	0xbd9f1db9	-0.07769341
91	0xbd020cc2	-0.031750448
92	0xbc8313d1	-0.01600066
93	0xbd8ec230	-0.06970632
94	0xbd55e40d	-0.05221944
95	0xbc5b8983	-0.013399485
96	0x3d7eccc3	0.062206995
97	0x3da27602	0.079326645
98	0x3d560469	0.0522503
99	0xbd48d629	-0.049032364
100	0xbd5bfe84	-0.053709522
101	0x3d92e0d9	0.071717925
102	0x3cede8b5	0.029041627
103	0x3b0ed387	0.002179356
104	0x3c361218	0.011112712
105	0xbd874171	-0.06604279
106	0xbce097d7	-0.027416153
107	0x3da1f509	0.07908065
108	0xbca5ecc0	-0.020254493
109	0xbb8714c5	-0.004122349
110	0xbd8b9847	-0.06816154
111	0xbd3c1cc6	-0.045925878
112	0xbadbb969	-0.001676363
113	0xbd50e9f4	-0.051004365
114	0xbc26d86b	-0.010183434
115	0x3d08ebc0	0.033427954
116	0xbda489fa	-0.080341294
117	0x3cc7cb60	0.024388969
118	0xbd5e5d9c	-0.05428849
119	0xbd2431d4	-0.040086582
120	0x3d0100f3	0.031495046
121	0x3d85dbbe	0.06536053
122	0xbcb7d693	-0.022441184
123	0xbd0a18dd	-0.033715118
124	0xbd981503	-0.07425883
125	0xbd2d5f6e	-0.042327337
126	0xbd936032	-0.07196082
127	0xbc99eecc	-0.018790625
128	0x3d10f1a1	0.035386685
129	0xbd2e94a0	-0.04262221
130	0x3ddbfb7e	0.10741328
131	0x3cf2bd0c	0.02963116
132	0xbd24354c	-0.04008989
133	0xbd8d359f	-0.06894993
134	0x3d8c08c0	0.068376064
135	0x3d1559a8	0.036462456
136	0x3c98416d	0.018585885
137	0xbc4baef6	-0.012431851
138	0x3dcfd477	0.10147946
139	0xbc19b845	-0.009382312
140	0x3c524ea6	0.012836134
141	0x3d6088c8	0.054817945
142	0x3d8b26a6	0.06794481
143	0x3cb3aedc	0.021933965
144	0x3b19cf7e	0.0023469622
145	0xbd329f57	-0.04360899
146	0xbcd1a470	-0.025591105
147	0x3d544372	0.051822133
148	0xbd9a1f17	-0.07525461
149	0x3c98b04a	0.018638749
150	0xbdf8db1f	-0.12151169
151	0x3cb28606	0.021792423
152	0x3dd7989a	0.10527153
153	0x3d068baa	0.032848038
154	0x3b09fc7f	0.002105504
155	0xbd1fb713	-0.038992953
156	0x3da0f4ba	0.07859178
157	0xbd1ae4ab	-0.03781573
158	0x3c89d6ef	0.016826121
159	0x3db1a218	0.08673495
160	0x3e2227ea	0.15835539
161	0x3d920c08	0.07131201
162	0xbde2c799	-0.110732265
163	0x3d813c26	0.063103005
164	0x3c320bc6	0.010867065
165	0xbd45f338	-0.048327655
166	0xbdf08bc1	-0.11745406
167	0x3c9ba5cd	0.018999958
168	0x3db65d7f	0.08904552
169	0x3d3be05b	0.04586826
170	0xbc49860d	-0.012300027
171	0x3ddc1f08	0.10748106
172	0xbd558dda	-0.052137233
173	0x3e0225d7	0.12709747
174	0xbd31d945	-0.043420095
175	0x3c50fb64	0.012755249
176	0xbc8cfb2f	-0.017209617
177	0x3bb0aa1a	0.0053913714
178	0x3cdc4efb	0.02689313
179	0x3dd6d711	0.104902394
180	0x3c61f4a8	0.013791241
181	0x3c740a91	0.014895097
182	0x3c738826	0.014864003
183	0x3d92e4c2	0.07172538
184	0x3df00b29	0.11720879
185	0x3da897a3	0.082320474
186	0xbd7e8c31	-0.062145416
187	0x3ded043b	0.115730725
188	0x3d9cf414	0.07663742
189	0x3ca55d92	0.02018622
190	0xbd16b736	-0.036795817
191	0xbd140ef8	-0.036147088
192	0x3d05749e	0.032581918
193	0xbd885f3c	-0.066587895
194	0x3d865928	0.06559974
195	0x3dcec608	0.10096365
196	0xbd922c88	-0.071374
197	0x3cc83100	0.024437428
198	0x3c4abdc6	0.012374347
199	0x3d8181d5	0.063235916
200	0x3da6e51e	0.081491694
201	0xbd938372	-0.072028056
202	0x3de99a9c	0.114064425
203	0x3d8cf2e5	0.06882266
204	0x3d4026ca	0.046911992
205	0xbd172338	-0.03689882
206	0x3c8b88e7	0.017033054
207	0xbcc2f38b	-0.023797771
208	0x3b89bb64	0.004203247
209	0xbc99a80f	-0.018756894
210	0x3b99d3c9	0.004694436
211	0x3da6e015	0.08148209
212	0xba9949e8	-0.0011694999
213	0x3b525f8a	0.0032100403
214	0x3d6c59b7	0.057702746
215	0xbd8acc89	-0.06777293
216	0xbd795279	-0.060869668
217	0xbce9e37b	-0.028550854
218	0x3d6d5f45	0.057952184
219	0xbd0e93c2	-0.03480888
220	0xbc18380e	-0.009290708
221	0x3e038656	0.12844214
222	0x3c8f24b8	0.017473564
223	0x3d9ebcd8	0.07750863
224	0xbd2085c4	-0.03919007
225	0xbdb175c3	-0.086650394
226	0x3c0442b8	0.008072548
227	0x3e05963a	0.13045588
228	0x3d493eb6	0.04913207
229	0x3d89d2cc	0.067296594
230	0x3d3cccc0	0.046093702
231	0x3d3e89bb	0.04651807
232	0xbd13afba	-0.036056258
233	0xbc3c9844	-0.011510912
234	0x3db6b9ac	0.08922133
235	0xbcdeb08a	-0.02718379
236	0xbb072ed1	-0.002062727
237	0x3dafcfa0	0.08584523
238	0x3d0c679d	0.0342785
239	0x3d8720f3	0.065980814
240	0xbd499e93	-0.049223494
241	0x3ce63af1	0.028104277
242	0x3d71dcc5	0.059048433
243	0xbc3241a2	-0.010879906
244	0x3d812e1a	0.06307621
245	0x3d1ffad1	0.039057557
246	0xbd774655	-0.06036981
247	0x3dc478d5	0.095933594
248	0xbc332057	-0.010933003
249	0x3c121af1	0.008917556
250	0xbd770662	-0.06030882
251	0x3d0b1c82	0.033962734
252	0xbcdffca1	-0.027342143
253	0x3d2ffddc	0.04296671
254	0x3d72973b	0.059226256
255	0xbc1fd2b0	-0.009754822

2.bias f4 [128]
0	0xbd8f319e	-0.069918856
1	0x3dce3a9f	0.10069775
2	0xbdadbb09	-0.0848294
3	0xbd0f0cf7	-0.034924474
4	0xbcc00b52	-0.023442898
5	0x3bce661b	0.006298793
6	0x3d33584b	0.043785375
7	0x3d91d762	0.07121159
8	0x3d4f4464	0.05060233
9	0xbdaefaa8	-0.08543903
10	0xbd896948	-0.06709534
11	0xbda49cd3	-0.08037724
12	0x3d47e150	0.04879886
13	0xbc233ab3	-0.009962725
14	0xbd32b52f	-0.04362982
15	0xbd37d88e	-0.044884257
16	0x3d191ace	0.03737908
17	0x3ce2f50d	0.02770474
18	0x3cb7ac9e	0.022421177
19	0x3d539cc5	0.05166318
20	0x3dde1400	0.108436584
21	0xbd2d1c52	-0.042263336
22	0xbb8e18d5	-0.0043364563
23	0xbd6d13fc	-0.057880387
24	0xbd0ea0f6	-0.034821473
25	0xbb0b4454	-0.0021250444
26	0x3d13d2ce	0.03608971
27	0xbd1013cf	-0.03517514
28	0xbd7865f1	-0.060644094
29	0xbc6a4075	-0.014297594
30	0x3d3855fb	0.045003872
31	0x3cd70b55	0.02625052
32	0x3da7fea8	0.08202869
33	0xbd8565b8	-0.06513542
34	0x3d621a07	0.055200603
35	0x3d52d906	0.0514765
36	0x3d7c0d12	0.061535902
37	0xbcf37b0d	-0.029721761
38	0xbd82ee86	-0.06393151
39	0xbce7e1d6	-0.02830593
40	0xbc5e3f59	-0.013564908
41	0x3d18c350	0.03729564
42	0x3dab7651	0.083721764
43	0xbca90a40	-0.02063477
44	0xbccfe4c1	-0.025377633
45	0x3d01c0ed	0.03167813
46	0xbd94d5e5	-0.0726736
47	0x3af0998a	0.0018356305
48	0x3cd42b1b	0.02589946
49	0x3ccfb8b7	0.025356634
50	0x3d370e46	0.044691347
51	0xbccdbe33	-0.025115108
52	0x3a0a90b2	0.00052858435
53	0x3cb0effd	0.02159881
54	0xbc47f4ee	-0.012204392
55	0xbcd851b3	-0.026406145
56	0x3d516a80	0.051126957
57	0x3d1b02b7	0.037844386
58	0xbc86decb	-0.016463658
59	0xbd7ef02e	-0.062240772
60	0xbd20740f	-0.039173182
61	0x3d704bf3	0.05866618
62	0x3db3b859	0.08775396
63	0xbd117bd5	-0.035518486
64	0x3d1200e6	0.035645388
65	0xbc93db1e	-0.01804882
66	0x3c71099f	0.0147117665
67	0xbd7db9c6	-0.061944745
68	0x3ca3197c	0.019909613
69	0xbc8c81a4	-0.017151661
70	0x3d2020f9	0.039093945
71	0xbd75e9c9	-0.060037408
72	0xbcab4fbf	-0.02091205
73	0xbd838f5f	-0.0642383
74	0xbd6bdd36	-0.05758401
75	0xbd998690	-0.07496369
76	0xbc8a655b	-0.016894033
77	0x3cc8f806	0.02453233
78	0xbb9c84a5	-0.0047765546
79	0x3ca77503	0.020441538
80	0xbd31aa90	-0.04337555
81	0xbd405495	-0.046955664
82	0xbc3cfb6b	-0.011534552
83	0xbd90430a	-0.07044037
84	0xbcc6794f	-0.024227766
85	0x3d215e2f	0.03939646
86	0x39d59f53	0.00040745232
87	0xbd437f79	-0.04772899
88	0x3d91e9ef	0.071246974
89	0x3dd00b65	0.10158423
90	0xbd2eae22	-0.042646535
91	0xbd8f16d6	-0.069867775
92	0x3bb598d1	0.005541899
93	0x3c7c0b54	0.01538356
94	0xbcdc16ea	-0.026866395
95	0xbcce6fdd	-0.025199825
96	0x3b034864	0.0020032162
97	0xbcb97bf7	-0.022642119
98	0xbd721ae8	-0.05910769
99	0x3d3af767	0.045646098
100	0x3bbe0e40	0.0058000386
101	0x3d8ac1ca	0.067752436
102	0x3d61da0d	0.05513959
103	0xbc2e129a	-0.010624552
104	0x3c8d78af	0.01726946
105	0x3d713562	0.0588888
106	0xbd93dba3	-0.07219627
107	0x3d936b46	0.07198195
108	0x3da7857b	0.08179756
109	0xbd0046f3	-0.031317662
110	0x3d73bebf	0.05950808
111	0xbcdbcacc	-0.0268301
112	0xbd580d09	-0.052746806
113	0x3db0b1e6	0.086276814
114	0x3d04302a	0.032272495
115	0xbcd6609f	-0.02616912
116	0xbd850187	-0.06494432
117	0x3cbf39ab	0.023342928
118	0x3ca53113	0.020165002
119	0xbd69f96d	-0.057122637
120	0x3c64e589	0.013970741
121	0x3d1031ea	0.03520385
122	0x3d0cb531	0.034352485
123	0xbd3cd81b	-0.04610453
124	0xbc48cd8c	-0.012256037
125	0xbd08dc0d	-0.03341298
126	0x3d5df970	0.05419296
127	0x3d84a27b	0.06476303

4.weight f4 [3, 128]
0	0xbc4738b8	-0.012159519
1	0x3da6f07b	0.08151337
2	0xbd7aa1e5	-0.06118955
3	0xbc94f494	-0.01818303
4	0x3cea63a4	0.028611965
5	0xbb709771	-0.003671136
6	0x3dbaa5dc	0.091136664
7	0x3e018f46	0.1265231
8	0x3cc682f0	0.024232358
9	0x3d1a0b4f	0.03760844
10	0x3e04b8c9	0.12961115
11	0xbbe2f2dd	-0.006925924
12	0xbd901a7a	-0.070363
13	0xbd22d513	-0.039753985
14	0x3c8ff350	0.017572075
15	0x3e3e4eea	0.18584791
16	0x3d7fa4f1	0.06241316
17	0x3c181507	0.009282357
18	0x3cbd2592	0.023089204
19	0xbd4b0a39	-0.049570296
20	0xbdef8047	-0.11694389
21	0x3d1e92bc	0.038714156
22	0xbd64c702	-0.05585385
23	0x3bf94d53	0.0076080947
24	0xbc8bdcc6	-0.017073046
25	0x3e094973	0.13406925
26	0x3d220fd4	0.039565876
27	0x3dd8d58a	0.10587604
28	0x3c3d4b24	0.011553559
29	0x3dcf35bb	0.1011767
30	0xbce38552	-0.027773533
31	0x3cc0aaf2	0.023519013
32	0xbe00015c	-0.12500519
33	0x3cc8eb9d	0.024526412
34	0xbd6373f7	-0.055530515
35	0x3dd98f12	0.106229916
36	0x3e29559d	0.16536565
37	0xbdeb6b76	-0.11495106
38	0x3c83ac21	0.016073288
39	0x3d35a0f0	0.044342935
40	0xbba13fc6	-0.0049209325
41	0xbdedff81	-0.11620999
42	0xbc64f41e	-0.013974218
43	0x3d45dc5e	0.04830586
44	0x3c144c0a	0.009051332
45	0x3ddc54c6	0.10758357
46	0x3d6acde3	0.057325255
47	0xbdbaa7f8	-0.09114069
48	0x3e0f1ccf	0.13975833
49	0xbe0d4fce	-0.13799974
50	0xbddb600c	-0.10711679
51	0x3ce4de81	0.02793813
52	0x3c027b6e	0.007963998
53	0x3d913b03	0.07091334
54	0x3cfe0660	0.0310089
55	0xbc8f27ca	-0.017475028
56	0x3da0e692	0.07856478
57	0xbd49e3e6	-0.049289607
58	0x3c6e55f3	0.014546859
59	0x3b9a66f6	0.004711981
60	0x3d7a683f	0.061134573
61	0x3e4888f7	0.19583498
62	0x3d850ff0	0.064971805
63	0xbdf11a80	-0.117726326
64	0x3d7533e3	0.059863936
65	0x3d613eaf	0.05499142
66	0x3de2f7d7	0.11082428
67	0x3d4f1a29	0.050562058
68	0xbd2d1654	-0.042257622
69	0xbbe9e79e	-0.0071382066
70	0xbd62a7ff	-0.055335995
71	0x3e26f29d	0.16303487
72	0x3cbf7eec	0.02337595
73	0x3c434e36	0.011920502
74	0x3e08f863	0.13376002
75	0x3d135f5a	0.035979606
76	0xbd881846	-0.06645255
77	0x3dae6d06	0.08516888
78	0xbcb6631f	-0.022264061
79	0xbcf994df	-0.030466495
80	0x3d7b33bd	0.06132864
81	0x3e569e18	0.20958745
82	0x3e2ab9da	0.16672459
83	0x3d2057e4	0.03914632
84	0x3d979535	0.07401506
85	0x3cbfed10	0.02342847
86	0x3dad0a0b	0.08449181
87	0xbdb1c259	-0.08679647
88	0xbd7d2636	-0.06180402
89	0x3d7ac19f	0.061219808
90	0x3e2f9706	0.17147455
91	0x3d3c3c67	0.04595604
92	0x3c994044	0.018707402
93	0xbbc342e0	-0.0059589
94	0xbd9ad314	-0.07559791
95	0xbe15f846	-0.1464549
96	0xbb85b0d6	-0.0040799184
97	0xbdd11067	-0.102082066
98	0x3d26e8da	0.04074941
99	0xbe0eaf64	-0.13934094
100	0x3d9d32d4	0.0767571
101	0xbe01a134	-0.1265915
102	0x3d193a29	0.03740898
103	0x3d186fa2	0.037215836
104	0xbd6c05ab	-0.057622593
105	0x3c19042b	0.009339373
106	0x3cbfb051	0.023399504
107	0xbdef7456	-0.11692111
108	0x3dd2834c	0.10278949
109	0x3d808bb8	0.06276649
110	0xbd7ba4f3	-0.061436605
111	0xbd790f9f	-0.060805913
112	0x3cef80ce	0.029236224
113	0x3db1e97b	0.08687111
114	0xbd801a63	-0.06255033
115	0x3d5a8198	0.053346246
116	0x3ccbf80c	0.024898551
117	0x3cfd4bf0	0.030919999
118	0xbd1c35ed	-0.038137365
119	0x3c95aa33	0.018269634
120	0x3d857dad	0.065181114
121	0x3d757792	0.059928484
122	0x3c4e7d5c	0.01260313
123	0x3d96c017	0.07360857
124	0x3c9d9520	0.019236147
125	0x3e276a00	0.1634903
126	0x3d8145c8	0.06312138
127	0x3e34aaf7	0.17643343
128	0xbba9afb5	-0.0051784166
129	0x3daba1d8	0.083804786
130	0xbda5a694	-0.08088413
131	0x3d41bc52	0.047298737
132	0xbd32c2a2	-0.043642648
133	0x3d314346	0.043277048
134	0x3dfa61c8	0.122256815
135	0x3d1456a4	0.03621544
136	0xbd91840a	-0.071052626
137	0x3c392cdf	0.011302202
138	0x3e531d15	0.20616563
139	0xbd98737f	-0.07443904
140	0x3c5f0013	0.013610858
141	0xbd819c1a	-0.06328602
142	0x3d01508f	0.031570967
143	0x3e43d680	0.19124794
144	0x3d300c0a	0.04298023
145	0x3e1db8a1	0.15402462
146	0xbc0d6469	-0.008629897
147	0xbd021152	-0.0317548
148	0xbd0849ab	-0.03327338
149	0x3e17ad64	0.14812237
150	0xbd165c46	-0.036709093
151	0xbd6f0fa5	-0.05836453
152	0xbd31d909	-0.04341987
153	0x3e15d9df	0.14633892
154	0x3cfcff04	0.03088332
155	0x39d7b0d6	0.0004113975
156	0x3d3d5a35	0.046228606
157	0xbd96abfd	-0.07357023
158	0x3cbe172f	0.023204414
159	0x3db200ab	0.08691534
160	0xbdf6ef12	-0.12057318
161	0x3e41bc0a	0.18919387
162	0xbdef85b2	-0.11695422
163	0x3db1581f	0.08659386
164	0x3e3d6c05	0.18498237
165	0xbe086cca	-0.1332275
166	0x3d97ff20	0.07421708
167	0xbc7ba673	-0.015359509
168	0x3b640571	0.0034793282
169	0x3ca68bc4	0.020330317
170	0xbe2d8514	-0.16945297
171	0x3d885c34	0.06658211
172	0xbd242f80	-0.040084362
173	0xbddf8af5	-0.10915176
174	0x3d1d691b	0.038430315
175	0xbdade33c	-0.08490607
176	0xbb9607f8	-0.0045785867
177	0xbdea14fd	-0.114297844
178	0xbc4b850c	-0.012421858
179	0x3cfc8f60	0.030830085
180	0xbafa5d22	-0.0019101242
181	0x3d2ca872	0.04215283
182	0x3c6a1880	0.014288068
183	0xbd7b5f4f	-0.06137019
184	0x3c811741	0.015758159
185	0x3d535b74	0.05160089
186	0xbbfbb2f7	-0.0076812464
187	0xbced74ab	-0.028986296
188	0x3d92b237	0.07162898
189	0x3dea57a3	0.11442497
190	0x3df02d89	0.11727435
191	0x3dc7005b	0.09716865
192	0x3d7646d5	0.060126144
193	0x3c9ebc3a	0.019376863
194	0x3dcf5a71	0.10124672
195	0x3c710bcc	0.014712285
196	0xbe19888d	-0.14993496
197	0xbd053ef8	-0.032530755
198	0xbdef3eb7	-0.11681884
199	0x3e4a8c52	0.1978009
200	0x3c5170e1	0.01278326
201	0xbcd8aab5	-0.026448587
202	0x3da4711f	0.08029389
203	0x3d14d6a8	0.036337525
204	0x3c53e389	0.012932667
205	0x3dcf01eb	0.10107788
206	0xbce7c06c	-0.028289996
207	0xbdfe8acf	-0.124288194
208	0xbcede1fd	-0.029038424
209	0x3e22c1e9	0.15894283
210	0x3dd658dc	0.10466167
211	0x3d8f1e90	0.06988251
212	0x3df145e8	0.11780912
213	0x3e46eaf2	0.19425562
214	0xbcdc8abb	-0.02692162
215	0xbdea0576	-0.11426823
216	0x3d871277	0.06595319
217	0x3d765e71	0.06014866
218	0xbd7a3e16	-0.061094366
219	0xbd8c06d3	-0.06837239
220	0x3cc2733a	0.023736585
221	0xbd9588f4	-0.07301512
222	0xbd2de838	-0.04245779
223	0xbb50bff3	-0.0031852692
224	0xbd8fb989	-0.0701781
225	0xbdbd2793	-0.09236064
226	0x3d71a70a	0.05899719
227	0xbda9f824	-0.08299282
228	0x3d8a7a3e	0.06761597
229	0xbd9f3da0	-0.07775426
230	0x3d1626bf	0.036658045
231	0xbc71be54	-0.01475485
232	0xbc870834	-0.016483404
233	0xbdb877b7	-0.09007209
234	0x3d6071d4	0.054796055
235	0xbd89d7f3	-0.06730642
236	0x3e1c625d	0.15271898
237	0xbbce2d45	-0.0062920176
238	0xbcca95d3	-0.024729645
239	0xbe076e47	-0.13225661
240	0x3d80377e	0.06260584
241	0x3de03afc	0.109487504
242	0x3c86c677	0.016452057
243	0xbb75bc29	-0.0037496185
244	0xbd9cd554	-0.076578766
245	0xbc9c819f	-0.019104777
246	0xbd8734c7	-0.06601863
247	0xbd67f835	-0.056633193
248	0x3e2a86e3	0.16653018
249	0xbaa091a7	-0.0012250439
250	0x3dcf3527	0.1011756
251	0xbdc0e674	-0.094189554
252	0xbd88d79f	-0.066817515
253	0xbccb8bd0	-0.024846941
254	0x3cffd1a5	0.031227896
255	0x3e0cc41a	0.13746682

4.bias f4 [3]
0	0xbcb47c7e	-0.022032019
1	0x3c9b81b1	0.01898274
2	0xbd00f908	-0.031487495
